resources/models/hand_landmark_model_1.pth (torch, 113940 bytes, 6 tensors)

fc1.weight f4 [128, 63]
00000000: e5e6 8a3c 9865 c5be 49dd 483f 7b56 f83c
00000010: 87e7 a4be 005b a1bd 55e6 10be d8c0 a0bd
00000020: f1cd 5fbe 0c72 963e dad2 a63e e27e 11be
00000030: 8d0c 313f 350e 6e3f d5cf 51be 0a9d 523e
00000040: ff4d 87be 72a4 4dbe fff1 0dbd e1d8 d33c
00000050: d118 f53e 9cc2 4f3d 4ea6 80be e1c2 cf3e
00000060: f64f 36bd eb1b 20bf 3209 103e 5de2 4f3e
00000070: 6a12 07be 43ce 5e3d 4d8c 19bd 2d2a 853e
00000080: 41a9 e13c 763a d3be 9bab 233e 6156 5f3d
00000090: d846 00bf 5151 783e 558b c8be 6060 8e3d
000000a0: 18d4 e8bd e64b 423e 1461 c13d 2eca 103d
000000b0: ed9f 853e f514 0cbe 1825 053e 9888 5bbe
000000c0: a6d5 993c deae bb3e c6cb 08bf 531c cf3d
000000d0: 6318 c6bb 821e 023f 9041 123e e72c fcbb
000000e0: 3281 843e bfde a73d 8d77 1d3d 37d8 17be
000000f0: abae 4ebe e1f7 a23e be1a eabe 9e08 b13d
00000100: 6edd d33d d081 a33d 60d6 973d c0e6 a4bd
00000110: 966a da3d 6aa1 983d 8210 9ebd 8e41 c2bd
00000120: cc4f 9cbc a63c 70bd 4cd0 e9bd 4257 3ebd
00000130: 609d 2dbb a257 c03d 099d f8bd 5000 5ebc
00000140: ba79 cb3d 775f e5bd 187b c33d 7870 72bc
00000150: 14a2 9abc 4611 e93d 94a0 8fbd 8083 393d
00000160: e8e7 f03d e8a5 e3bd e03a 93bb 8004 5f3c
00000170: c281 dfbd 8633 c0bd 0094 42bc c272 70bd
00000180: 341c ffbc bcf8 53bd 2001 9e3c 467a 29bd
00000190: 8b70 ccbd d8eb 2abd 62d1 9ebd e296 14bd
000001a0: 274a 82bd 50fd 03bd 7df2 81bd 3039 413d
000001b0: 508f 39bd 65ba adbd 3893 d6bc bc90 e13d
000001c0: 847f edbc 2665 f03d e2ea dc3d 381d bdbc
000001d0: 6a46 bb3d 88a4 fe3c b0fd 113c 789b 8b3c
000001e0: c0de 003b 97aa a6bd 104f 223d dc68 d8bc
000001f0: 9b65 d1bd 5cb9 93bc 1c4c 123c 73d0 2c3e
00000200: dd9a a73f 6d96 c03b 5039 20be 2f84 a73f
00000210: 1f0c 513e 8ea1 a3be fc85 793f c556 5fbd
00000220: 4dbd 45be 98e8 143f 44bf 00bf 88cb 0e3f
00000230: 98fb 6d3e aad0 0ebe cd9f bfbe 8bd0 f03e
00000240: e3a9 04bd 5171 8fbe 79bb 7b3e 03c4 733e
00000250: bca7 863e 4599 a13e 5245 6f3e a69a 863f
00000260: 69e6 603e 60de 7cbe c438 e4be d3b7 6dbe
00000270: 9c21 53be 5d1b c1be 44e6 f83e d711 1f3b
00000280: a9d8 eebe 56de 36bd cfd0 d13d 7fe0 b13d
00000290: 5b5a 9abe 82b8 1abe 4adb 52be ffda ebbe
000002a0: cdb6 54be e5c9 5abc 485e f63e 023a 493e
000002b0: b97b a3be d3f2 92bc edbb 553e 26df 28be
000002c0: 74ae 12bf 4c08 64be 5284 07bd 847c 13bf
000002d0: 636a f0bb 1664 953e 294f 1cbd bb3a 823d
000002e0: 20b2 c43e 5353 5b3b 9e9a 943e dbce 3d3f
000002f0: c678 e13d e538 773d e3ad a83d a020 023e
00000300: 9ddc c9bd 2f5a f3bd 97a4 3abd fdb7 aa3d
00000310: 3278 21bd 3ba4 e4bc cba5 d8bb d783 a23d
00000320: fe14 2e3d 26ca 08bd 2fd9 28be 2206 babb
00000330: 22cb bc3d 4057 79bd ad94 3d3d 7ae8 ccbd
00000340: ace5 483d e9ef dc3d a4b8 a93d d63b 99bd
00000350: 7700 a2bb ff60 acbb a3fe 8dbc 5159 a4bd
00000360: ecad adbd c8ac 8c3d bac1 7dbc 0fc5 eabd
00000370: fd80 6b3b 4b05 d5bd 3642 d73c dc4f 623d
00000380: 4bb9 cfbd 932b c0bd 04aa ca3c 25e9 20bc
00000390: f8a6 3dbd ffea 383d a5f7 4dbd 712f 93bd
000003a0: a2f5 b9bc 5c81 3a3d ba74 4a3d 5416 c23d
000003b0: f564 71bd 0f5b 34bd bd25 b93c 8eab 863d
000003c0: b597 cb3c 8de7 5abd 4314 ac3d 99c0 eebd
000003d0: 64e8 aa3b 05e8 cc3c b89b 7abd f303 04bd
000003e0: 5325 81bd 97d8 03bd d0a5 72bd 2c3e 043e
000003f0: ecf6 833e eade aabe a248 0e40 3700 a93e
0.016955802 -0.38554072 0.78462654 0.030314675 -0.3220789 -0.07878685 -0.14150365 -0.07849282
-0.21855904 0.29383886 0.32582742 -0.14208558 0.69159776 0.9299043 -0.20489438 0.20567718
-0.26426694 -0.20082262 -0.034654614 0.025860252 0.47870496 0.050722703 -0.2512688 0.40578368
-0.04450985 -0.625426 0.14066008 0.20301194 -0.13190618 0.054395925 -0.037487317 0.2600874
0.027546527 -0.4125554 0.15983431 0.054525737 -0.501081 0.2424977 -0.39168802 0.06951976
-0.11368579 0.18974265 0.09442344 0.035349064 0.26098576 -0.1367987 0.13002431 -0.21438825
0.018778633 0.3665685 -0.53435934 0.10112824 -0.0060453876 0.508278 0.14282823 -0.0076957825
0.25879818 0.08196782 0.03844409 -0.14828573 -0.20183818 0.31829742 -0.45723528 0.08644222
0.10344969 0.07983744 0.07413936 -0.080518246 0.10664861 0.07452662 -0.07717992 -0.0948516
-0.019081019 -0.05865159 -0.114166826 -0.046469934 -0.0026491508 0.09391715 -0.12139327 -0.013549879
0.09935327 -0.11199849 0.09544963 -0.014797322 -0.018876113 0.11380248 -0.0701305 0.045291424
0.117629826 -0.111156285 -0.0044931024 0.013611913 -0.10913421 -0.09384827 -0.011876106 -0.05870319
-0.031141378 -0.051750883 0.019287646 -0.041376375 -0.09982403 -0.041728824 -0.0775478 -0.036276706
-0.063618 -0.032224 -0.06345079 0.04717368 -0.04530269 -0.084828176 -0.026193246 0.11013934
-0.028991468 0.117380425 0.10786988 -0.023085222 0.0914429 0.031084314 0.0089105815 0.017041907
0.001966402 -0.08138006 0.03962618 -0.026417188 -0.10224458 -0.018032722 0.008929279 0.16876392
1.3094136 0.005877307 -0.15646863 1.3087214 0.2041478 -0.31959194 0.9747007 -0.05452611
-0.19310494 0.5816741 -0.5029185 0.55779314 0.23240507 -0.13946787 -0.37426606 0.47034106
-0.03238858 -0.2801614 0.24583234 0.23805241 0.26299846 0.31562248 0.23366287 1.0515945
0.21962894 -0.24694204 -0.4457456 -0.23214655 -0.2061829 -0.3771619 0.4861318 0.0024272108
-0.46649674 -0.04464563 0.10244905 0.08685397 -0.3014706 -0.15109447 -0.20591465 -0.46065518
-0.20772858 -0.0133537995 0.48118806 0.19651034 -0.3193033 -0.017938053 0.20872469 -0.16491374
-0.57297444 -0.2226879 -0.033085175 -0.5761187 -0.007336901 0.29177922 -0.03816143 0.06358858
0.3841715 0.0033466413 0.29024214 0.7414376 0.11009364 0.060356993 0.08236291 0.12707758
-0.09856532 -0.118824355 -0.04556712 0.08335874 -0.039421268 -0.027910342 -0.006611561 0.07935303
0.04250049 -0.03339591 -0.16489099 -0.0056770006 0.09218432 -0.060874224 0.046284366 -0.10005279
0.049047157 0.10787947 0.082871705 -0.07482116 -0.004943903 -0.0052605863 -0.017333334 -0.08024848
-0.084804386 0.06868893 -0.015488083 -0.11463367 0.0035935037 -0.104014 0.026276689 0.05525194
-0.10142764 -0.09383311 0.024739273 -0.009821211 -0.046301812 0.045145985 -0.050285 -0.07186783
-0.022700135 0.045533523 0.049427725 0.09476915 -0.05893417 -0.044032153 0.022601003 0.0657569
0.024852613 -0.05344348 0.08402302 -0.11657829 0.0052156914 0.02501298 -0.06118366 -0.03223033
-0.06305947 -0.032188978 -0.059240162 0.12914342 0.25774324 -0.33373195 2.2231832 0.33007976

fc1.bias f4 [128]
00000000: e813 29be b022 bbbd 44df ce3e ecdf 42bd
00000010: 9a47 c93e 7f6b 0bbe f9f3 e43e 3895 903e
00000020: af52 9d3e a878 fb3a 0210 d4bd 3103 e7bd
00000030: e1a0 6b3e b09d 7a3e 95be 3ebe 2a44 91bd
00000040: 6c72 0dbe 705b 603e e8d4 1a3e d835 56be
00000050: 76e4 df3d 4312 bf3d a72d 763e 1bbd ed3c
00000060: cebc 503d 436d c2bd 65ea 2ebe 80ab cf3c
00000070: 6fe5 ecbe 617e cd3d e267 393e b99d bd3c
00000080: 05e1 043e 086b eb3c b04d b53e c839 c23e
00000090: 67fc 47be 3c13 6c3e 5bbc a43c eabd e8be
000000a0: 4714 8b3e 8845 c93d 52af 60bc 287f fabc
000000b0: 7172 223e b2fa 89bd 2425 5e3d 5627 f73c
000000c0: b09b 5abd 505b fabb 78f5 e63d f611 99bd
000000d0: bb49 e0bd 79ef 953e 3928 15be d59d 2d3e
000000e0: 61db 843d b513 fe3d 867a b2be e77d f338
000000f0: 1db6 843d 72ca b43d 62fe fcbc 64f4 0d3e
00000100: fa35 85bc adf1 a73e 8e30 a33d 1f59 f33c
00000110: 5055 a43e 8cbd 8a3e c7fd 56be 0807 ba3d
00000120: 2e5d b4bd 5a91 b63d 20ef 18bb da3c 453d
00000130: f590 a2be eea4 6abd ea44 b0bd fc11 7a3e
00000140: d569 673e 45a6 fc3d d494 1cbd b23a 5fbe
00000150: 5260 b23c 00e8 59b9 7e40 7cbd 56a2 00be
00000160: 7e61 fcbc 9fe6 20be a18a 263e ba26 763e
00000170: 880d a4bd 201d 14be 99e9 f23d 16e2 4ebd
00000180: a8ac d13d 3463 c9bc 5b0e 83be 4642 dbbd
00000190: 4908 00bd b0a2 dfbc a1ce 28be e2cf 873d
000001a0: 4457 09be 2aa4 043e b652 d43d ae4b ff3e
000001b0: 26a1 34bd e8df 433e 1edc c6bc 8f8b 793e
000001c0: 32fc cd3d a4a1 34be b832 21bd f224 323e
000001d0: b976 d8bd dcec 0d3e 178e 353d 3523 673d
000001e0: 873d 90bd eae7 c3bd 84af 54bd 2250 e93e
000001f0: ad1c 3e3e da81 a93d 2f85 d6be f54e 793e
-0.165115 -0.091374755 0.40404713 -0.04757683 0.3931244 -0.13615225 0.44717386 0.28238845
0.30727145 0.0019185739 -0.10354616 -0.112799056 0.23010589 0.24474216 -0.18627389 -0.070930794
-0.1381318 0.2190988 0.1512028 -0.20918977 0.10932247 0.09329655 0.24040852 0.029020837
0.05096131 -0.09493496 -0.17081602 0.025350332 -0.46268794 0.100338705 0.18106034 0.023146497
0.12976463 0.02873756 0.35410833 0.3793471 -0.19529878 0.23054212 0.020109346 -0.45457393
0.27163908 0.09827715 -0.013713675 -0.030578211 0.15863968 -0.067372695 0.05423464 0.030170124
-0.05337113 -0.00764028 0.11277288 -0.07474129 -0.10951563 0.29284266 -0.14566125 0.1695474
0.06487156 0.124061026 -0.34859103 0.00011610594 0.06480048 0.08827676 -0.030883018 0.13862759
-0.01626109 0.3280157 0.079682454 0.029705582 0.32096338 0.27097738 -0.20995246 0.09083372
-0.08806835 0.08914442 -0.002333589 0.048153736 -0.31751218 -0.057286195 -0.08606894 0.24420923
0.22598965 0.12336401 -0.03822787 -0.21799734 0.021774445 -0.0002078116 -0.061584942 -0.12561926
-0.030808207 -0.15712975 0.1626382 0.2403821 -0.080103934 -0.14464235 0.118609615 -0.05050858
0.1023801 -0.024583437 -0.2559689 -0.10706 -0.0312579 -0.027299255 -0.16485073 0.066314474
-0.13412195 0.12953249 0.10367338 0.49862427 -0.044098996 0.19128382 -0.024274882 0.24369644
0.10057868 -0.17639786 -0.03935501 0.17396906 -0.105695195 0.13859886 0.04432496 0.05643006
-0.070429854 -0.095657185 -0.051925197 0.4556895 0.18565626 0.0827672 -0.41898486 0.24346526

fc2.weight f4 [128, 128]
00000000: 3245 4e3d 5a40 43bd 230f 413e 3331 273d
00000010: c807 003e 74ce 933d 5d57 3f3e ef83 1b3f
00000020: a9cb 493f 02ca 643a 9829 d83c 3410 f73c
00000030: 0ecf 3b3f ded6 fd3d 538c 1a3f b3f0 a83d
00000040: 5fc6 01bc 654a 37be a96a 52be 40a2 30be
00000050: 918a 4e3e 0e88 c3bd 88cb 4ebd 4248 473e
00000060: 05e7 6cbf 6f4a 37bd d467 e23e aa72 c3bc
00000070: 3e98 e4be 1503 b8be 2ac1 c03d dc22 e2bb
00000080: 12bf a33e 8639 263d bd3d 3abe aa3e d53e
00000090: d917 c7be bcd9 6a3d dabd 423e f6c2 05be
000000a0: d2e3 e93c 74a8 433e dec0 59bf 28bc 193c
000000b0: 28fc 74bf b9f2 87bd 4fc9 8b3d f144 bd3e
000000c0: 9d6a d93e ca9b 88bd b240 d73d 3433 3abf
000000d0: b030 6c3c 3bc7 2cbd 2195 3cbd 8dbf 233e
000000e0: 4aa0 a33e 393f edbd decd 04be 9521 823f
000000f0: 0aac a8be 1afb 663d 616c a73e c646 02bf
00000100: 8a91 1b3b 7d62 84bf db80 cfbd 0fd2 833d
00000110: 55a3 48be 4dcd d3bc 2d43 273d ff9b 99be
00000120: a595 3a3e 8d3d c63e 24a8 debc 5f84 583d
00000130: 3cb0 973e 343b 43bd bf22 153e 2c0b 38be
00000140: b833 ae3d ff95 25be 9701 09bf 591a febd
00000150: 2d0a 263f e07b 113d 947f a63c 7373 143c
00000160: f66c 2c3d 1eb9 b03c 633a c0be 33ed f93d
00000170: d169 b9bd ff4a 6abf 92b5 a2be 4edf 0dbd
00000180: 18df 6d3d 3b54 16be 4121 86bd bdbd ddbd
00000190: 11d7 47be 5ec1 2fbf b75d cbbd 006a 1abe
000001a0: 84b9 563e 91cb 6c3e e883 89be e415 54be
000001b0: d7c0 3d3d e6c9 20bf 1b9b 61be 4f0f 303f
000001c0: b8d9 a83e 1df1 8cbd 0677 5bbd cb42 2e3e
000001d0: ab4c b43d 58fb 5fbe 3cc8 8dbc 27c9 8d3e
000001e0: a80b 2bbd 8546 13be 415e acbe 9fc2 203f
000001f0: 7c15 903e e684 92bd f777 0cbf 3856 9cbe
00000200: ad76 62bd 8e75 b0bd ea06 6fbd f440 953c
00000210: e456 14bd 8cf3 ff3c 3b98 143d 1f66 05bd
00000220: 5070 dcba 05f7 9e3d 7063 763c 089d 023d
00000230: d08b 97bc 7f5a 373d 7230 ea3b e08f 50bd
00000240: 9f58 28bd 760e 79bd 596f 643d d684 843c
00000250: edd9 dabd 54a2 efbc b320 033d b285 9ebc
00000260: 92ef c3bd 91fc 1abd 6e2c 89bd 57a6 34bd
00000270: aebe 433d eaef 4e3d fd32 813a 54f2 993c
00000280: fa1d 1b3d bdfa 8c3d 947e caba fd0c 20bd
00000290: 5741 8dbd 385e 303d 752c 17bd 7021 93bb
000002a0: bed1 58bd 0f62 83bd 799a db3c 0dc1 9a3d
000002b0: 3415 9fbd 8c85 21bd b6b0 1ebd d4b0 50bd
000002c0: 6fe8 5ab9 c201 83bd b7ce 0fbd 8457 d93c
000002d0: b8df 263c f774 71bd 1c43 54bd 9d4f 5dbd
000002e0: 2ef6 80bd a4f4 b7bd d900 b9bd db16 8abc
000002f0: 4d31 41bd 9319 a03d fc41 f43c 4c66 a1bc
00000300: a6c8 493c 675d b7bd 85f0 b03d fab5 0e3d
00000310: 8a28 6bbc ce95 90bd 98e6 16bd 244b 8fbd
00000320: ad4d 4dbd 72e4 803d d890 fdbc 88e2 3a3d
00000330: ec86 083d 1c29 29bd 7ae4 fabd 2486 3c3d
00000340: 02d4 88bd f1c2 a1bd 3c5e 93bd 710c 8c3c
00000350: f874 59bc 62ea 85bd bd5f 8a3d d86c ccbc
00000360: 82f6 2abd 5ac9 123d 39c0 b9bc ab75 2fbd
00000370: 29a7 8fbd 9bd5 02be 8706 9fbd 548d 0c3d
00000380: 901e a0bd a70a 853d d517 763d 20fd 3bbd
00000390: 3fdc 9bbd b741 32bd 7edf fc3c 736a b33c
000003a0: 0214 a1bd 07f4 92bd c161 16bd e0ae 68bd
000003b0: 40a1 9a3a 09e3 acbd 648f ddbd b4ee 1abd
000003c0: 0125 01be bb4f 833c eeb7 4c3d d0e1 b4bd
000003d0: 78ff 9abd 2a05 9cbd 8c0f e43c f65d 4b3c
000003e0: 6ccf d0bc b5e0 d0bd 616e 9dbd ed1b 98bd
000003f0: 1e52 023c f42e f93c f7e3 dfbd 3d9f fdbc
0.05035896 -0.047668792 0.1885343 0.040818404 0.12502968 0.07217112 0.1868567 0.6074819
0.78826386 0.0008727611 0.026387021 0.030159093 0.73362815 0.12394498 0.6037037 0.08249035
-0.0079208305 -0.17899473 -0.205485 -0.17249393 0.20170046 -0.09547435 -0.05048707 0.19461158
-0.9254001 -0.04474872 0.4421984 -0.023858387 -0.44647402 -0.3593985 0.09411843 -0.006901128
0.31981713 0.040582202 -0.18187614 0.4164937 -0.38885382 0.057336554 0.19017735 -0.13062653
0.028551016 0.19107229 -0.85059917 0.009383239 -0.9569726 -0.066380925 0.06825506 0.3696666
0.42464152 -0.066703394 0.105103865 -0.7273438 0.014415905 -0.04218219 -0.046040658 0.1599104
0.31958228 -0.115843244 -0.12969157 1.0166498 -0.32943755 0.056391813 0.32699874 -0.5088924
0.002373787 -1.0342556 -0.10131999 0.0643655 -0.19593556 -0.025854731 0.04083555 -0.30001828
0.18221147 0.38718835 -0.027179785 0.052860614 0.29626644 -0.047663882 0.14564036 -0.17973012
0.08505958 -0.161705 -0.5351805 -0.12407369 0.64859277 0.035518527 0.020324506 0.009060728
0.0420961 0.021572646 -0.37544546 0.12203445 -0.09053386 -0.91520685 -0.31779152 -0.034636788
0.058074087 -0.14680569 -0.065493114 -0.10827205 -0.19515635 -0.6865443 -0.09929984 -0.15079498
0.20969206 0.2312453 -0.2685845 -0.20711476 0.046326485 -0.6280807 -0.22031824 0.6877336
0.32978606 -0.06881926 -0.053580306 0.17017667 0.08803686 -0.21873224 -0.017307393 0.2769253
-0.041759163 -0.1438237 -0.3366566 0.6279697 0.2814139 -0.071542546 -0.5487055 -0.3053453
-0.05528896 -0.08616172 -0.058356203 0.018219449 -0.036215678 0.031244062 0.03627799 -0.032568093
-0.001681814 0.07761959 0.015038356 0.031888038 -0.018499285 0.04476404 0.0071468884 -0.05091846
-0.04110014 -0.060804807 0.055770252 0.016176622 -0.10686097 -0.029252209 0.032013606 -0.01935086
-0.09567179 -0.037838522 -0.066979274 -0.044103947 0.04778927 0.05052177 0.0009857115 0.018792309
0.037870385 0.06883762 -0.00154491 -0.039074887 -0.06897228 0.043058604 -0.036907632 -0.00449007
-0.0529344 -0.064151876 0.026807057 0.07556353 -0.07767716 -0.039434 -0.038742743 -0.050949886
-0.00020876688 -0.0639682 -0.035109248 0.026530989 0.010185175 -0.058949437 -0.051821813 -0.054031003
-0.06296955 -0.08982208 -0.09033365 -0.016856601 -0.047166158 0.07817378 0.02981662 -0.0197021
0.012315905 -0.08953362 0.086396255 0.034841515 -0.014352927 -0.07059823 -0.036841005 -0.06996754
-0.050122906 0.062935725 -0.030952856 0.045626193 0.033331797 -0.04129897 -0.1225061 0.046026364
-0.06681062 -0.0789851 -0.07195708 0.017095776 -0.013272516 -0.065388456 0.06756542 -0.024954244
-0.041738994 0.035836555 -0.022674667 -0.042836826 -0.07014305 -0.12776797 -0.07764917 0.03431447
-0.07818329 0.064961724 0.06008132 -0.045895696 -0.07610368 -0.0435197 0.030868288 0.021901345
-0.07865144 -0.07175451 -0.03671432 -0.0568074 0.0011797324 -0.08441741 -0.10818365 -0.0378253
-0.12611772 0.01602923 0.049980097 -0.08832133 -0.07568258 -0.076181725 0.027839445 0.012412539
-0.025489531 -0.101991095 -0.07687069 -0.074272014 0.007954149 0.030417897 -0.10932153 -0.03095972

fc2.bias f4 [128]
00000000: 330b 593e a504 87bd 096b 5b3e 93e5 e5be
00000010: e1f6 173d dec0 e23c 58eb d6bd aaea d93e
00000020: 5a90 fa3d a7b2 68bd c6ff 0fbd 143c 283d
00000030: 6be9 b0bd d80f bfb9 b4cb cc3c 5694 5cbd
00000040: d21b 31be 068f 86be 4463 183d a7de babd
00000050: 7708 b1bc a5aa ccbd 7950 1dbd 0e0a 89bd
00000060: e3ef debd c87d efbd 1a22 713d 6ea6 d73e
00000070: 6702 34bd 8229 3cbe 8a47 50be 7108 e93d
00000080: 454c 3a3c aeab c53e 18f7 d0bd 3037 81be
00000090: fe99 46bd 078c 9abd 9361 533e 785c da3e
000000a0: e644 133e dc8a 91ba 1c29 3f3c 2910 77be
000000b0: 42a7 80bc d0b0 963e 49d1 eebd 40fd 84bd
000000c0: f215 b2be 6cc0 c9be 384e 3d3e 4c39 1e3e
000000d0: 0831 403e ea44 433d 6718 c83d 8fc2 73bc
000000e0: d77b 43bd 012a 3abd 0512 babd e306 d7bd
000000f0: e2ea f33d 4c15 573e 8853 8dbe d467 82bd
00000100: cc97 503e b890 5bbd f246 c5bc 4477 dcbc
00000110: a985 583d ca51 2d3d 8090 0dbe 8a56 543e
00000120: 0e68 f5bd 020f b3bd 5f18 8e3e 65ee 7dbc
00000130: 2eb0 8a3e ad84 fc3d fcf9 323d cc15 0d3c
00000140: f50b 833d 3aad 84bb 7073 5dbc 8499 ffbd
00000150: cc63 b9bd cac9 173c b31d 843c 6aa2 82bd
00000160: 993c 97bd 1214 92bd d551 963e f221 6c3e
00000170: d289 d53c f898 97bb b8d5 ec3d d282 39bd
00000180: bc9f 66bd 828d 453e 9efe afbd f880 003f
00000190: c073 6abd 246a c5bd 933d 23bd 8217 433e
000001a0: 8cfc 793e b0af e1bb b100 933e fc79 df3c
000001b0: cfc0 0c3e 820e 633c 351e f2bd 2505 06be
000001c0: a2d2 cd38 cc04 333e 3600 24be 1237 4e3e
000001d0: 4e37 e13e 6f94 dd3c b83a fbbb ef58 583e
000001e0: 2cbd 513e ef59 223b 0a31 76be 2a86 673d
000001f0: 3fb3 9b3d 348d a33a a5f2 523d c0c4 a1bd
0.21195678 -0.06592683 0.2142755 -0.44901714 0.037100676 0.027679857 -0.10494107 0.42561847
0.12234564 -0.056811 -0.035156034 0.04107292 -0.08638271 -0.00036442163 0.024999477 -0.0538524
-0.17295769 -0.26280993 0.037204042 -0.09124499 -0.021610482 -0.09993485 -0.038406823 -0.06691371
-0.108855985 -0.11693913 0.058870412 0.42119163 -0.043947604 -0.18375209 -0.2033979 0.11378563
0.011370723 0.38607544 -0.102033794 -0.25237417 -0.048486702 -0.07546239 0.2064269 0.42648673
0.14381751 -0.0011104005 0.011667516 -0.24127258 -0.015704755 0.29431772 -0.11661012 -0.06493616
-0.34782368 -0.3940462 0.1848687 0.15451545 0.18768704 0.047673143 0.097702794 -0.014877929
-0.047725525 -0.045450214 -0.09085468 -0.104993604 0.11910035 0.21004218 -0.27602792 -0.0636746
0.20370406 -0.05360481 -0.02408168 -0.026912339 0.052861843 0.04231433 -0.13824654 0.20736137
-0.119827375 -0.08743097 0.2775297 -0.015498732 0.2708754 0.123299934 0.043695435 0.008611154
0.06398765 -0.0040489705 -0.013516292 -0.12480453 -0.09052238 0.009264419 0.016127443 -0.06378634
-0.07384605 -0.07132734 0.29359308 0.23059824 0.026066694 -0.0046263896 0.11564201 -0.045290776
-0.05630468 0.19292262 -0.08593486 0.5019679 -0.057239294 -0.09639385 -0.039853644 0.19051936
0.24412745 -0.0068873987 0.28711465 0.027279846 0.13745426 0.013858439 -0.11822168 -0.130879
9.814395e-05 0.17482299 -0.16015705 0.20138195 0.43987507 0.027048318 -0.007666912 0.21127675
0.2048232 0.0024772843 -0.24042144 0.056524433 0.07602548 0.0012477995 0.051500935 -0.07898855

fc3.weight f4 [24, 128]
00000000: 894d a43e 2ea4 8c3c 2249 473e faba 5b3d
00000010: 56b0 123e 94fc ffbd 83ce 8d3e a764 0c3e
00000020: 4223 d13d 862c 493d 6074 173d 639e 54be
00000030: 58c6 493d fe6d d6bd 7d6e 3dbd abd2 563c
00000040: 41c0 323f 2528 cd3c 13b9 babe c828 31bc
00000050: e1f5 6a3f c044 753e 925e dcbe d001 9fbd
00000060: d923 ec3c e895 8fbd 68a4 6d3d 45c5 20bd
00000070: 2c2d 6abd 8fea 7f3e 0aaf 4b3e 15ce 243f
00000080: db2a 8c3c fded a13e 351b 9abd 9478 c7bf
00000090: 187f 5bbf be34 1dbd 9ee3 1a3e 048a cdbe
000000a0: 6c85 4a3d 75b2 c0bf acf4 38bf 7490 22be
000000b0: 0309 2dbd d8f0 3c3e 9fa1 94bd 7d6b 05bd
000000c0: d653 62bf 5e93 0fbf 8e49 5f3e f51a cd3e
000000d0: db81 123e 2535 803e 0e06 65be 8b55 563b
000000e0: edf3 943c 563b 933c 39f6 30bd ba94 f53c
000000f0: 8464 78bf e699 2a3e 936e 3ebf 4228 83bd
00000100: eb36 2b3e f7b8 6abd a8a5 373d 77bb f9bd
00000110: 181b 743f 3862 8bbc 3c5a 7dbc 5b47 73bf
00000120: 52da 0abf 2294 d2bc 1521 6ac0 6962 843c
00000130: 7379 1ebf 62e7 7abf 546b 8f3e f669 073d
00000140: 19b9 9b3e 1ebd dbbe e11c 803d a49e 083f
00000150: c4e8 543d 4c46 0b3c f210 9ebf b3c5 523e
00000160: 4ebf 00bd d439 25bd 3728 19be 2b5f 0dbd
00000170: b4ce a53a 1b83 ea3e f890 f5bc b695 c5bf
00000180: da6f 80bd 84d9 9bbf e015 84bd 50c1 aabd
00000190: afdf 953d 981b 91bd 8207 83bd ea84 a43e
000001a0: 7495 6d3f 9c22 87bd 6df5 f03b b270 10bd
000001b0: 84c3 333e 5464 22bc b2cd 893d d717 863f
000001c0: a4be 033d 1c2b d23d 0425 0bbe 8c66 0c3c
000001d0: 5f0a d1be 330e 31be 5fe1 01be 80ac a93e
000001e0: cdcf b73e 246a 5d3d 769b 573e 77f6 0ebe
000001f0: 9963 163e 5c1d 8a3e 624b 77be 7481 d8bc
00000200: 2a4d 13be b8a0 55bc cf20 223f 96f9 d9be
00000210: b725 cd3d 8def b2bd 3194 81bf d600 04bc
00000220: 6c94 d43e 80d1 bbbd af61 9fbc 2d21 7dbf
00000230: 5d10 8abd 0265 9a3b cdc6 d2be 44e1 3ebd
00000240: a389 e5be beac f2bf 85bf fabf 8c6e 8bbc
00000250: 9656 4d3e edd1 93bd 99c2 0bbd 4adb 853c
00000260: 5556 46bd 8f97 b13c 14e6 65bf 1ca5 8abe
00000270: 8f0a 7f3a 0542 07be 1fd3 e0bf 5b1f f7be
00000280: 20d6 973c 9de7 82bc 7edb cdbd 1590 893e
00000290: 7104 dfbe 7384 98bc 39d2 16be 62ba 283e
000002a0: d98a 4bbf 45b8 63be 5f90 ea3e 3b86 5b3e
000002b0: 092e eabd fa57 71be 2f20 90bd 0d8f 943b
000002c0: b86e b93d 5898 143f 6260 193e c81e 40be
000002d0: a22f 9fbf 445e e03e 850f 08bd 50b2 9ebd
000002e0: 30b3 0a3d c50a 23bd d6d4 a6bd 1024 b2bc
000002f0: a187 853e 1aba f6bf 0708 b93e ff85 da3d
00000300: a417 19c0 ad6f a13d 1e7a e6bc 937a fcbf
00000310: 8106 4f3f 7aab 8a3b 953d cebd df30 013d
00000320: 1936 bc3e 80c9 4f3a 0ce1 103e 504a aebd
00000330: b6e8 d33c 2543 ed3d 4d81 023e ce95 c23c
00000340: 2529 01bf 77d2 92bf 6011 903c c44d 833e
00000350: b5a8 333d f1e2 423b 93b3 033e 512c 5a3d
00000360: 2f81 d9bc 295a 9ebd efdf 3d3f e3a3 8cbf
00000370: 25a7 adbe b09c adbf 31fc 1b3e 1d01 dcbe
00000380: 2ed8 813c 9426 d7bd 2afd cfbd ceba 06bc
00000390: 405e 2c3c e520 613c 801a 423c d91a a8be
000003a0: 91f5 233e 90dc 61bd 88d4 7b3d d96e 423c
000003b0: 7780 34be 0498 77ba 275b 85bd 0211 013f
000003c0: 7ec3 3f3c c31c 9dbf e0e1 e2be b04f 1f3f
000003d0: 2064 643e 6c8d c43e 654f 8c3d 3ffe 3fbd
000003e0: 2857 0fc0 e7ac 20bf 4c61 39bf 31c0 483e
000003f0: 702a f13d 41a7 57c0 2307 543e b14d 8b3c
0.32090405 0.01716813 0.19461492 0.05364511 0.1432508 -0.12499347 0.27696618 0.13710271
0.10211803 0.049114726 0.03697622 -0.20763545 0.04926142 -0.10470198 -0.046247948 0.013111751
0.69824606 0.025043556 -0.36469325 -0.010812946 0.9178143 0.23952007 -0.430409 -0.077640176
0.028825687 -0.07011014 0.05801812 -0.03925063 -0.057171986 0.24991821 0.19890991 0.64376956
0.017110279 0.31626883 -0.075247206 -1.5583673 -0.85740805 -0.038380377 0.15125892 -0.4014436
0.049443647 -1.5054461 -0.7224834 -0.15875417 -0.042244922 0.1845125 -0.07257389 -0.032573212
-0.88409173 -0.5608424 0.21805403 0.4005963 0.14307348 0.25040546 -0.22365591 0.0032704796
0.01818272 0.01797263 -0.043203566 0.029978145 -0.97028375 0.1666027 -0.7438747 -0.06404163
0.16720168 -0.057305302 0.044835716 -0.12193959 0.9535384 -0.017014608 -0.015463408 -0.95030755
-0.5423938 -0.0257054 -3.6582692 0.016160207 -0.61904067 -0.9800931 0.28011572 0.033060037
0.30414656 -0.42917722 0.06255508 0.53367066 0.051979795 0.008500647 -1.2348921 0.20583229
-0.031432442 -0.040338352 -0.14956747 -0.034514587 0.0012650103 0.4580315 -0.029976353 -1.5436313
-0.06271334 -1.2175756 -0.06449485 -0.08337653 0.07318055 -0.07085341 -0.063979164 0.32132655
0.9280617 -0.06598398 0.007353476 -0.035263725 0.17555052 -0.009911615 0.067286864 1.0476025
0.03216423 0.10262129 -0.13588339 0.008569371 -0.40828225 -0.17290573 -0.12683628 0.3313942
0.35900727 0.0540563 0.21055397 -0.13961206 0.14686431 0.26975524 -0.2414985 -0.026428916
-0.14384905 -0.013038807 0.6333131 -0.4257323 0.10016959 -0.08737097 -1.012335 -0.00805684
0.41519487 -0.09170818 -0.019455759 -0.9887875 -0.06741402 0.004711748 -0.41167298 -0.04660155
-0.4483157 -1.8958967 -1.9589697 -0.017020486 0.20052561 -0.072177745 -0.03412113 0.016339917
-0.048422176 0.021678714 -0.89804196 -0.27079093 0.00097290514 -0.13208778 -1.7564429 -0.4826611
0.01853472 -0.015979582 -0.100516304 0.26867738 -0.43558076 -0.018617844 -0.14728631 0.1647735
-0.7950874 -0.22238262 0.4581327 0.21437924 -0.11434562 -0.23568717 -0.070373885 0.0045336545
0.09054321 0.5804496 0.14978173 -0.18761742 -1.2436411 0.4382192 -0.033217926 -0.07748854
0.033862293 -0.039805193 -0.08146064 -0.021745712 0.2608004 -1.9275544 0.36138937 0.10670089
-2.392068 0.078826286 -0.028134402 -1.9724907 0.808693 0.0042318674 -0.100703396 0.031540748
0.36760023 0.0007926449 0.14148349 -0.08510268 0.025867801 0.115850724 0.12744637 0.023753073
-0.50453407 -1.1470479 0.01758641 0.25645268 0.043862063 0.0029737318 0.12861471 0.05326492
-0.026550857 -0.077320404 0.7416982 -1.0987514 -0.33916584 -1.3563442 0.15232922 -0.429696
0.015850153 -0.10505405 -0.10155709 -0.008223249 0.010520518 0.013740753 0.011847138 -0.32832983
0.16011645 -0.055141985 0.061481982 0.011867248 -0.1762713 -0.00094449543 -0.065115266 0.50416577
0.011704324 -1.2274402 -0.44312954 0.6223097 0.2230382 0.38389146 0.06851081 -0.046873327
-2.2396946 -0.6276383 -0.7241409 0.19604565 0.117756724 -3.3695834 0.20705847 0.01700482

fc3.bias f4 [24]
00000000: 5b9b 5fbd 760a 6cbd 268e 0f3e 4a00 e93d
00000010: b0a5 e53e d994 07bf d206 2ebe 9b1a 6bbd
00000020: 94d9 be3e c4e6 293e f158 12bf 01ee b0bd
00000030: b97e b33d 3d9e 713c 54f9 94bd 9191 f4bd
00000040: 8c82 0a3e a30c c2bd feec 573e a800 203e
00000050: f45d dcbe 0da7 abbd 6b18 eb3d 60cd 81bd
-0.054591518 -0.057627164 0.14019069 0.11377008 0.44852972 -0.529615 -0.16994789 -0.05739842
0.37275374 0.16591936 -0.57166964 -0.08639146 0.08764405 0.0147472 -0.07274118 -0.11941827
0.13526362 -0.094750665 0.21086499 0.1562525 -0.4304043 -0.08381472 0.11479267 -0.06338
