resources/models/hand_landmark_model_6.pth (torch, 113940 bytes, 6 tensors)

fc1.weight f4 [128, 63]
00000000: 49d2 c83c 80fe d83d 9097 3c3d 1f9f fdbd
00000010: aba6 bb3d 29e1 d73d 7ffe e8bd e2c6 01bc
00000020: 2cfa 7c3b 0345 cf3d d9c8 91bd bfca 8bbd
00000030: e28d bdbd b44f 533d d398 de3d d81b 0dbd
00000040: 3764 6f3d eb5d 723d 1d02 5cbd 038c 34bc
00000050: 074d 103d 18ef cd3d df3a 813d 1d7b a23d
00000060: a8e7 d5bd af42 293d 3ebe 8dbc 6772 7b3d
00000070: 2977 05be 073c 853c 2aea 03be 3f51 bcbd
00000080: e29f 353d 25fc 04be f5c5 403d eea9 1d3c
00000090: 68d9 f7bd 0060 2dbd e985 273d 89a0 ebbd
000000a0: 1515 a0bd 20a6 c13d 7c2c c0bd c411 d3bd
000000b0: 61bd d2bd 2c32 863b 9643 803d a77c bc3d
000000c0: d4b0 86bd 2d3a fdbd 9774 bb3c cc7c 973d
000000d0: 4589 aebd 0bc0 b23c 1044 09bd b4fe 9dbd
000000e0: e94d d53d d78d 21bd 36e9 c93c bc4a db3d
000000f0: 10c3 83bd f1f5 29bd afe3 d53d 1801 2abf
00000100: 718f 81be 3a1a d240 2d20 a63d b4c0 23bf
00000110: bbce b640 ccbb 9e3e 06f5 24bf 5411 8740
00000120: e24f b63e 882d 1f3f 5390 3740 1929 13be
00000130: 5f2c 6040 e268 1640 5291 dfbe 0e1b 7ebf
00000140: 7885 b43f ed3b 9fbe a6d4 b0bf 7e56 9c3f
00000150: 22c6 383e 44a3 63bf 5536 0840 6bc7 913e
00000160: 8f13 cbbe 5184 4540 b64d b4be ee08 d8be
00000170: 329a 11bf 77df dcbd e94e 8fbf 9bb5 bebf
00000180: 7b36 7d3c c6e0 79be a5ef b1be a47a e93d
00000190: 8fe8 863e ab4a 343f d680 28be 12ba d43c
000001a0: 1276 0fc0 671a 1a3d 2c25 bcbe 95a6 24c0
000001b0: 7a1e a03e 29fd a03f 9f34 07c0 173e 813e
000001c0: 1b0f 1f40 db7a 7cbf 3b80 27bd 4746 203e
000001d0: 36d4 59c0 ad96 cabd 80c0 95bf c62a 17c0
000001e0: 5081 00bd 79b1 d3bc 7b45 eebf e0ea 70be
000001f0: 3ce7 823f 8e18 8fbf 3925 65bf 12d8 d73e
00000200: d4be 433f 1c90 8cbf 1127 943e 544b 1e40
00000210: 4e56 9bbf 1eb4 353e 716e 483f 4d39 83be
00000220: b895 573f 262f 59be 187e 5a3f 974d 1b40
00000230: b8b4 55bf b437 08bf 202a e33e c6c2 843e
00000240: c269 babd 7968 3abb ab4e 2b3f 69c9 823c
00000250: facc 48bf de68 103f d744 193e 13bf afbf
00000260: e19a 8a3e dc13 af3e 4eec a03e 2b22 7bbf
00000270: 87e4 123f 1691 ea3e 048a 89be 21b2 4c3e
00000280: e2d7 9f3e bae3 913e 8efa fabc d50d f33d
00000290: 54a5 d63e deb8 393f 10d6 993e ffd1 11c0
000002a0: 4000 8d3f 5988 6ebd 17c3 633f 5589 513f
000002b0: f14d 6fbf 9f39 e33f 211d 4a3e 66bd c5bf
000002c0: 2437 f23f b84d 5c3f edc7 d83e b588 6cc0
000002d0: 2f1b 833f 58f9 033f 767a 09bf e99f 383f
000002e0: a404 7abf 30fb 58bf c2da c03e 868c 16c0
000002f0: c733 e8bf 56f8 693f 6971 b53e e2b9 3a41
00000300: e2de 223f f294 2dbf 3674 9140 33a8 af3e
00000310: 987b e4bf 08b3 5640 9c7d 4d3e b0ad aabf
00000320: 040c 2740 621f 373f 38e3 26bf c288 f33f
00000330: 87b2 9cbe ae85 a2bf 507a 593f c105 8dbe
00000340: 11a3 603f d745 f73f df25 59be 5afa f03f
00000350: 331d c53f 4f00 82bc e670 5040 82f6 9f3f
00000360: 2a2c e5bd f8da b1be 8bb2 173f 3c1e 2e3d
00000370: 3438 803f 1baf 2340 7179 3abe 85f2 56be
00000380: ec88 163f 9c50 9bbe 0061 b03e c6ea d2bf
00000390: 998e 0f3e 0912 dc3e e6d9 623f e0df f1bd
000003a0: 6354 2ebf f44a e73f c621 f4be 00ee bebf
000003b0: d52a dcbf 05d5 e6be d47f 9bbe 4bd3 98c0
000003c0: 9f87 fa3e 8a7f b83f 8362 c53f 3bae 903b
000003d0: 4fb9 6c3e cce6 22be b973 d6be b28f 06bf
000003e0: 8454 71c0 2877 3bbf 6c88 113e 1492 dcc0
000003f0: 18ae e4bd fb6a 9f3f 34f0 1b41 06a1 b23e
0.024514334 0.10595417 0.04604298 -0.123838656 0.09162649 0.10540993 -0.11376666 -0.0079209525
0.0038601262 0.10120585 -0.07118387 -0.0682578 -0.092555776 0.051589683 0.10868993 -0.034450382
0.05844518 0.0591716 -0.053712953 -0.0110197095 0.03522971 0.10055369 0.06310057 0.07933638
-0.104445755 0.04132336 -0.017302629 0.0613884 -0.13033737 0.016263975 -0.12882295 -0.09195184
0.04434193 -0.1298681 0.047063787 0.009623034 -0.12102014 -0.04232788 0.04089919 -0.11505229
-0.07816521 0.09455514 -0.09383485 -0.10306123 -0.102900274 0.0040953364 0.06262891 0.09203463
-0.06576696 -0.12364612 0.022882743 0.0739685 -0.08522276 0.021820089 -0.033512175 -0.077145964
0.10415251 -0.03944191 0.024647336 0.10707614 -0.064336896 -0.041494314 0.10443818 -0.6640792
-0.2530475 6.5657015 0.08111606 -0.63965917 5.7127357 0.31002653 -0.64436376 4.2208652
0.3560782 0.6217885 2.8681839 -0.14371146 3.5027082 2.3501515 -0.43665558 -0.9926003
1.4103231 -0.31100407 -1.3814895 1.2213895 0.18044332 -0.88921 2.1283162 0.28472456
-0.3966336 3.086201 -0.3521554 -0.42194313 -0.5687591 -0.1078481 -1.1195956 -1.4899172
0.015454884 -0.2440215 -0.34753147 0.11400345 0.26349303 0.70426434 -0.16455397 0.025967631
-2.2415814 0.037622835 -0.3674711 -2.5726674 0.31273252 1.2577258 -2.1125867 0.25242683
2.485297 -0.9862496 -0.040893774 0.15651809 -3.4035773 -0.098920204 -1.1699371 -2.3619857
-0.031373322 -0.025841461 -1.8614954 -0.23527098 1.0226817 -1.1179368 -0.8950992 0.42157036
0.76463056 -1.0981479 0.28936055 2.4733477 -1.2135713 0.1774449 0.7829352 -0.25629655
0.8421283 -0.21209392 0.85348654 2.4266107 -0.8347888 -0.53209996 0.44368076 0.2592985
-0.09102203 -0.0028443618 0.6691691 0.01596518 -0.7843777 0.56410015 0.14967667 -1.3730186
0.27071288 0.3419484 0.31430286 -0.9809901 0.57379955 0.45813817 -0.2686311 0.19989826
0.31219393 0.28494054 -0.030637052 0.118678726 0.4192301 0.7254771 0.3004613 -2.2784421
1.1015701 -0.0582355 0.8896956 0.8185018 -0.93478304 1.775196 0.19737674 -1.5448425
1.8923078 0.8605609 0.4234003 -3.695844 1.0242671 0.51552343 -0.53702486 0.72119004
-0.9766333 -0.8475828 0.376669 -2.3523269 -1.8140801 0.91394556 0.35438088 11.670382
0.6362134 -0.678054 4.545436 0.34308013 -1.7850218 3.3546772 0.20067447 -1.3334255
2.6101084 0.7153226 -0.6519046 1.902611 -0.30604956 -1.2697046 0.8495226 -0.27543452
0.8774882 1.9318188 -0.21205853 1.8826401 1.5399536 -0.015869288 3.2568908 1.2497103
-0.11190064 -0.34737372 0.5925681 0.042509302 1.0017152 2.5575626 -0.18210389 -0.20990951
0.58802676 -0.30334938 0.34449005 -1.6477897 0.1401924 0.4298251 0.88613737 -0.11810279
-0.68097514 1.8069749 -0.47682017 -1.4916382 -1.7200571 -0.45084396 -0.30370963 -4.7757926
0.48931596 1.4413922 1.5420688 0.004415301 0.23117565 -0.15908355 -0.41885164 -0.5256301
-3.7707834 -0.73228693 0.14212197 -6.892832 -0.11166018 1.2454523 9.746143 0.34888476

fc1.bias f4 [128]
00000000: 219a 9bbd be2b 8e3e 16a7 eabf 083b 183f
00000010: 8c85 18c0 b363 443f 28dc 14bc 482b d2bd
00000020: 2d17 8e3f 09f6 b1bd bcbb cc3f aae4 20bd
00000030: 2c3d 393d c218 073f 6548 563f a409 ea3f
00000040: 2cb8 25bf e568 f63e 5f5d 00be bc85 4c3f
00000050: 6cb5 823f 255a 903e d372 3ebf e202 aebe
00000060: 59ec 523f ab27 093f 4383 f2bd 5bc7 b23e
00000070: 2e94 573b d1f5 62bd cab8 a6bc 27b2 933f
00000080: 9fca debd a75d 783f f81f ffbf 6bbe b4bd
00000090: 7b3c d7bd 6f1a aebe 1ecd e33f 9148 ddbd
000000a0: a68d edbd 2493 bebd 9f8d ac3f 83d6 f9bd
000000b0: d154 e23e b289 c0bd 3f35 fdbd ccbd 08be
000000c0: 234d 6f3f 975a 693f 8079 acbc 425f 1cbe
000000d0: 6c0a 31be 548d 953d 2f37 54bf 9a7c fbbf
000000e0: 5c03 febd 4f34 0e3f 1b3f 09bf 6d9f 9fbf
000000f0: 7c78 8cbd 96dd e2bd 339c e53f eac4 fa3e
00000100: 85d1 da3f d906 843e 7994 a2be cd6f 803e
00000110: 3c2e 633f 0db7 c2be 80a1 cb3e 5fe3 e4be
00000120: abd8 3bbd 6cf7 c6bd 5e82 3e3f 560c 203e
00000130: 19c0 273f 50f1 15be 9712 973e d517 d53d
00000140: ce63 20bd 09e4 e1bd c66f aebe 12fb 8e3f
00000150: 6203 e6bc 08fa 8e3e 1a7b d5bf 0e29 143f
00000160: e48a ec3e 8210 aa3e 3be2 58be 4970 733f
00000170: ec8e 63c0 57eb 84bd 875a 943e 9b44 25be
00000180: 05d5 c73f 69f0 d0be c4b4 e63e e965 183d
00000190: 0402 0f3d d214 88bd 41c8 e3bd 8452 fdbe
000001a0: 7888 d6be cc44 243e 08d1 23bf 605a 18bd
000001b0: 9c4f 81bd 2197 1d3e 6adb f8be e258 8bbf
000001c0: ab07 ca3d 3bad 223d d249 7ebd 3946 de3f
000001d0: 6720 d63e f165 a73f 7079 90be b9ff 293f
000001e0: fb98 abbe 746b b83e b7b7 81bf 5a42 d2bd
000001f0: b715 de3e 2399 6f3f 6211 5a3e fa3a 2e3f
-0.07597757 0.27767748 -1.833224 0.59465075 -2.383151 0.7671463 -0.009085692 -0.102621615
1.1100823 -0.086895056 1.5994792 -0.03928057 0.045224354 0.5277215 0.83704215 1.8284192
-0.6473415 0.48126903 -0.12535618 0.7989156 1.0211616 0.28193775 -0.7439396 -0.33986574
0.8239189 0.53576154 -0.118414424 0.3491772 0.0032894718 -0.05541021 -0.020351786 1.1538743
-0.10878491 0.970179 -1.9931631 -0.08825382 -0.105095826 -0.34004542 1.7796972 -0.108048566
-0.11599283 -0.093054086 1.3480719 -0.12199118 0.44205335 -0.09401263 -0.123636715 -0.13353652
0.93477076 0.91153854 -0.02105403 -0.15270713 -0.17289132 0.07302347 -0.82896703 -1.96474
-0.124029845 0.55548567 -0.53611916 -1.2470528 -0.06858918 -0.110774204 1.7938293 0.48978359
1.709519 0.25786474 -0.317539 0.25085297 0.88742423 -0.38030282 0.39771652 -0.4470472
-0.045860928 -0.09715161 0.74417675 0.15629706 0.6552749 -0.14642835 0.2950637 0.10404936
-0.03915768 -0.110298224 -0.3406965 1.117037 -0.028077785 0.27925134 -1.6678193 0.57875144
0.46199715 0.3321572 -0.2118005 0.9509321 -3.5555983 -0.064902 0.28975317 -0.16139452
1.5611883 -0.40808418 0.45059788 0.037206564 0.03491403 -0.06644596 -0.1112218 -0.49477017
-0.41900992 0.16041869 -0.6399083 -0.037195563 -0.063140124 0.15389682 -0.486049 -1.08865
0.09864744 0.039715987 -0.06208212 1.736518 0.41821596 1.3077985 -0.2821765 0.66405827
-0.33515152 0.3601948 -1.013419 -0.10266562 0.43375942 0.93593043 0.21295694 0.6805874

fc2.weight f4 [128, 128]
00000000: 5fae 88bc 3ba2 8ebf 5498 733f 744d 5ebe
00000010: 060d d7be b291 e1bd 3ba6 f5ba e32a 263c
00000020: 35e1 9bbd 31f8 79bd 4d3b 86bf 3161 1bbc
00000030: c0df cdbb c086 d9be bf3b 9fbf e08b 363f
00000040: fa19 4d3c 651a aa3f 3333 4e3a eebb 833f
00000050: 9843 0d40 7c87 4dbf 0ce9 103f 4710 3bbf
00000060: 56d1 e63e e1b5 01be 7211 013d 771a 02bf
00000070: ef0d 893d 7d53 8bbd 0bb3 b5be 02c0 263f
00000080: 6fcf 0f3d 75e9 a5bf c490 5c3f f164 43bd
00000090: 02b0 2fbd bd8b 503e 7c95 ecbe 0cee 02bb
000000a0: 8050 14bb 0d57 493f cb7d ce3d bda3 fcbd
000000b0: 9c8b de3e 48a3 aabd 9859 033d d927 86bd
000000c0: 61fd a43e 3aa4 a13e 1636 483d 706e e5bf
000000d0: 16d7 a93d f390 ebbf d3a4 db3e 7cdf 753d
000000e0: 9b57 4ebd a23f 713f df85 b73d 74c3 c93f
000000f0: 9503 a8bd 789d d6bf ba2d 42bd 67df 693f
00000100: 8214 453f 5586 02c0 1a06 523f 42bc 75bf
00000110: 9bef 2dbf 5650 30bf a44c 143e 6c79 513f
00000120: ca1c fa3e 256f a5bd 54aa e6bf 75c5 6abe
00000130: 10f7 51bf 4cd8 853f eaf1 e23f b359 c03f
00000140: 6572 4dbd d02d 68bc e0bb c73e 727e 713f
00000150: c8da 0a3f 7463 00bf 7ff7 b7bf 89ae 36be
00000160: e4cc 3fbf 4562 82bf dc41 883f 5f78 49bb
00000170: 2fe4 6d3f 7e40 debb ba35 503e a0ba 4dbf
00000180: 7a42 623f 6d11 183e 8ce3 99bf 3677 eebd
00000190: 4642 033c 7815 5ebc 3def 69bd 1992 28be
000001a0: cb6a 913f 131a 01c0 4083 573f 71f6 7ebd
000001b0: 00d4 9738 6260 153c cdc8 3ec0 1db5 603d
000001c0: d9fd 0c3e 3691 b53f 68eb 2abd d312 10c0
000001d0: ff4e 6ebf d8ad 833e a71a 59bf c91d 67be
000001e0: e5ba a6bf 0c1b ab3f a94e 553f d80d ddbc
000001f0: b89c aa3f cbd0 503e a77d f2be a301 143f
00000200: f303 c33c d50b c2be eac5 953e e0ab 98bf
00000210: 9b14 c7be 6b73 39bf 79ca 9f3d a368 55bd
00000220: a514 d9bf 005b 82bb f451 03c0 5403 a7bd
00000230: a1b4 78bf 2794 68bf bf77 23bf 3de8 80be
00000240: a8b6 d03e dfa9 dcbf 1f73 4fbd 8976 a3bf
00000250: 5813 e6be 78d6 643f 66f2 bfbd 5526 2abe
00000260: 2465 c83d 5bb3 9f3f a194 ab3d 6f0b d9be
00000270: d335 063d cf6d 1abd f36c ecbf af24 743d
00000280: 2978 7cbc 000f 47bf 5743 663f ffbe b13d
00000290: a3ae b03d 96ce 9fbf 22d4 943f a4b0 97bd
000002a0: 30a8 90bd 8424 dcbf 376c dcbc c523 8f3e
000002b0: d5c5 0d3f e99d 45bd f1fc 8e3c e4b4 0dbd
000002c0: 6e52 7c3d 7b61 0e3e 0e7c 7a3d a2a1 19bf
000002d0: ed37 823d c207 44bf d1c7 f5be ea41 523f
000002e0: 0e16 503d d9b3 e7be 013e 063f 3133 b83b
000002f0: c8cf 87bd c21f f83e 4623 193f fb2f e03e
00000300: a055 a6bd b138 bf3d 5677 143f 7147 c13f
00000310: 1b88 513d 43bd cc3d 7cac 3d3f c244 ca3e
00000320: 10f4 a2be f53a 11bd 1fb3 953f 226e dc3e
00000330: 13b7 c3bf da98 543e 770a 103f e7a9 fcbe
00000340: a26a e2bc 005b 76bb 66bb 8fbe 7cc1 d03e
00000350: d475 9d3f 2656 973f d276 0dbf 6ec6 a33f
00000360: e8a1 17bf 2938 d83d 2847 e8bf 2d65 b7bd
00000370: 87d4 e93e df06 8bbd 5f61 2abf e0ca 8d3f
00000380: 4e3e 03bf 1b20 8dbe db40 e93c a717 a3bb
00000390: 68e4 8ebd d862 acbd c4ee b9bc ecea fb3c
000003a0: 3c3c 2f3e cb4e 27bd ce1e 23bf 8692 203d
000003b0: 4a61 503d 031a 4ebf 4b77 003f 36d3 da3e
000003c0: e4a9 573f 5efe 973f 7c11 c7bc b9ef 28bf
000003d0: 0e1e de3d 964a bb3f 1d94 8ebe 80de 3d3f
000003e0: 8d92 123f c0a7 87be ce06 223e e4b8 af3c
000003f0: 4166 75bf 4773 173f a18f a23d e7b0 113f
-0.01668471 -1.1143259 0.9515431 -0.21709234 -0.42002124 -0.11014117 -0.0018741557 0.010142061
-0.07611314 -0.06102771 -1.0486847 -0.009483621 -0.0062827766 -0.4248562 -1.2440108 0.7130718
0.0125184 1.3289305 0.00078659056 1.0291727 2.2072506 -0.8028486 0.566056 -0.7307171
0.45081586 -0.12667038 0.031510778 -0.5082163 0.06692111 -0.068030335 -0.3548816 0.6513673
0.035109933 -1.296187 0.86158395 -0.047703687 -0.042892464 0.20365806 -0.46207798 -0.0019978313
-0.002263099 0.78648454 0.10082587 -0.12335918 0.43465889 -0.08331925 0.032067865 -0.06550569
0.32224563 0.31570607 0.048879705 -1.7924328 0.082929775 -1.840361 0.42899188 0.060027584
-0.050376516 0.9423772 0.08961081 1.5762773 -0.08203808 -1.6766806 -0.04740689 0.9135651
0.7698442 -2.039449 0.8204056 -0.95990384 -0.67943734 -0.6887258 0.14482361 0.818259
0.4885009 -0.0807784 -1.802073 -0.22926886 -0.8201761 1.0456634 1.7730076 1.5027374
-0.050157923 -0.014171079 0.39010525 0.94333565 0.54240084 -0.50151753 -1.4372405 -0.17840017
-0.74922013 -1.018624 1.0645099 -0.0030741913 0.92926306 -0.0067825904 0.20332995 -0.8036289
0.88382685 0.14850397 -1.2022567 -0.116438314 0.008011406 -0.013554923 -0.05711292 -0.16461982
1.1360716 -2.0172164 0.84184647 -0.062246744 7.239729e-05 0.009117218 -2.981006 0.054860223
0.1376871 1.418494 -0.041728407 -2.251149 -0.9308929 0.2571857 -0.84806293 -0.22569956
-1.3025786 1.3367629 0.8332315 -0.02698414 1.3329077 0.20392148 -0.4736149 0.57815
0.023805594 -0.37899652 0.2925256 -1.1927452 -0.38882908 -0.7244174 0.078022905 -0.052101742
-1.6959425 -0.003978133 -2.051877 -0.08154932 -0.9715062 -0.9085106 -0.63854593 -0.25177184
0.40764356 -1.723934 -0.050646897 -1.2770549 -0.44936633 0.89389753 -0.09372406 -0.16616185
0.09784916 1.247661 0.08377958 -0.42391536 0.032766175 -0.037702378 -1.8470749 0.059605297
-0.015409508 -0.77757263 0.899465 0.08679008 0.08627059 -1.248492 1.1627238 -0.074067384
-0.07063329 -1.7198644 -0.02690707 0.27956977 0.5537999 -0.048246298 0.017454596 -0.03459634
0.06160205 0.13904373 0.061153464 -0.6001226 0.06358323 -0.7657434 -0.4800401 0.82131827
0.050802283 -0.452544 0.5243836 0.005621337 -0.06631428 0.4846173 0.5981945 0.43786606
-0.081218004 0.09336985 0.5799459 1.5099927 0.05115519 0.09997036 0.74091315 0.39505583
-0.3182683 -0.035456616 1.1695288 0.43052775 -1.5290245 0.20761433 0.5626597 -0.49348375
-0.027638737 -0.0037590861 -0.2807266 0.40772617 1.2301583 1.1823165 -0.5525943 1.2794931
-0.59231424 0.10557587 -1.8146715 -0.089548446 0.45669958 -0.0678842 -0.66554826 1.1077538
-0.51266944 -0.27563557 0.028473308 -0.004977185 -0.06977159 -0.084172904 -0.02269686 0.030751668
0.17112821 -0.040846627 -0.6371888 0.039202236 0.050874032 -0.8050844 0.50182027 0.42739266
0.8424361 1.1874502 -0.02430033 -0.6599079 0.10845576 1.4632137 -0.27847376 0.74167633
0.5725487 -0.2649517 0.15822908 0.021450467 -0.9585915 0.59160274 0.07937551 0.56910557

fc2.bias f4 [128]
00000000: b1e4 bcbd 09cf ea3f 2eec df3e 2759 16bf
00000010: b79e 1a3f 40ec 8ebe 18de 493f 292f 71be
00000020: 08ba a73f b000 c0bd 707d 8dbe a869 bfbf
00000030: 0da5 a43e 8c97 38bf 2308 673f 4d78 873e
00000040: f1da 13c0 0832 57bf 4826 08be 0006 253f
00000050: 496d c7bd 2a73 d8bf 7bfb 23bf 7f81 2dbf
00000060: f92f a7be 22e3 bfbc 8ca8 61bf 8557 26bf
00000070: 84ad 3cbf bc2b 89bf c65d f7bf 0c88 efbf
00000080: 310f cabd 7187 58c0 4af5 dbbf 638b 1a40
00000090: 72aa 57be f554 8a3f 8c5f 163f 7206 d6bf
000000a0: e1e4 0fc0 e828 cdbe 339b bc3f 8556 0cbe
000000b0: d450 adbd eb2b a6be 1859 073f a91b a33e
000000c0: b4ef f2be 5d3c 21bf 8ddf 0e40 4287 0fbf
000000d0: 5812 babf 9eb0 3b3f 52c5 45be bcdb 8a3f
000000e0: 817d aebd ce5b 203f cd22 e0bf 0720 b53f
000000f0: 5e3b 183f 3c53 21bf c60c 18be 2e72 7bbd
00000100: f6a3 94be ba3e 983f 51eb 9fbf 8116 1b3f
00000110: e922 c53f 8ab6 ca3e 9d11 cabf b0bc 693f
00000120: e7c7 653f e9f0 4c3f 7e5a c9bf 73bc cc3f
00000130: e4d2 5e3f 33e7 9a3e b72f 0840 8a9e 8cba
00000140: c4dd 63bf a81a 303d f3d8 473f 1d93 953f
00000150: 115a 93bf 6037 91bf 4524 73be 303e 94bd
00000160: 85c9 95bf b622 8fbd 365a 3d3f fddb 72bf
00000170: fd2c 96be 0866 ce3f 6824 a4bf 60f5 a6bd
00000180: 59a8 e8bf 4c2b 42bd e0ee aebe 9a79 cb3f
00000190: 8099 14c0 8b1a a4bf 3922 b7bd f54f c9bd
000001a0: c0f1 7a3f 6126 7abf dd5a eabe 98f9 17be
000001b0: bb58 57bf f441 1ebe 048d 02c0 46c9 b6bd
000001c0: 5636 9f3f c74d 3f3f ae08 a0bf 0c44 073f
000001d0: 957a 143f dcee 223f 10c4 f6bd a52d 17bf
000001e0: db9e 833f 2783 3f3f 9b06 a4bd b48b cdbd
000001f0: a4c6 8c3e ad3c c8bc 21a3 f8bd db86 85bf
-0.09223307 1.8344432 0.43734878 -0.58729786 0.6039843 -0.2791462 0.78854513 -0.23553146
1.3103647 -0.09375131 -0.27634764 -1.4954119 0.32157174 -0.7210624 0.9024679 0.2645897
-2.3102381 -0.84060717 -0.13295853 0.6446228 -0.09737641 -1.6910145 -0.64055604 -0.6777572
-0.32653788 -0.023423735 -0.8814781 -0.64977294 -0.73702264 -1.0716472 -1.9325492 -1.8713393
-0.09866179 -3.3832667 -1.7184231 2.4147575 -0.21061113 1.0807177 0.5873954 -1.6720717
-2.2483447 -0.40070271 1.4734863 -0.1370488 -0.08462682 -0.32455382 0.5287032 0.3185704
-0.47448504 -0.6298273 2.2323945 -0.5606576 -1.4536848 0.7331637 -0.19313553 1.0848308
-0.08520032 0.6264008 -1.751062 1.4150399 0.5946559 -0.6301763 -0.14848623 -0.061388187
-0.29031342 1.1894143 -1.2493688 0.60581213 1.5401279 0.3959239 -1.5786625 0.9130354
0.8975815 0.800551 -1.5730741 1.599501 0.87040544 0.30254516 2.1279123 -0.0010728401
-0.8901026 0.04299417 0.78065413 1.168552 -1.1511861 -1.1345024 -0.23744304 -0.07238424
-1.1702124 -0.069890425 0.73965776 -0.94866925 -0.29331198 1.6124887 -1.282361 -0.0815227
-1.8176376 -0.047404572 -0.34166622 1.5896485 -2.321869 -1.28206 -0.08942074 -0.09829704
0.9802513 -0.9771481 -0.45772448 -0.14841306 -0.84119767 -0.15454847 -2.039857 -0.089251086
1.2438457 0.74728054 -1.2502649 0.52838206 0.57999545 0.6364572 -0.12049115 -0.59054023
1.0282854 0.748095 -0.080090724 -0.10036412 0.274953 -0.024442995 -0.12140489 -1.043178

fc3.weight f4 [24, 128]
00000000: 9a46 793e 2c5e 06c0 21fe 3cbf 7399 05bf
00000010: bf12 0fc0 8a56 c4bf d0c0 dcbf 9e73 41be
00000020: d19e 37bf 34fc 6d3d afed 20bf ac3d 94bf
00000030: 7a7e 22c0 c65b 35bf b2c4 e5bd 3969 c8bf
00000040: 566c 48bf dad0 bc3e 5084 bcbd fb47 3fc0
00000050: ad5f 1dbe 1386 533e 4905 a03f 7298 0fc1
00000060: 05c4 443f 68f9 023d ed64 19bd c6d8 e8bd
00000070: ec99 5ec0 c8eb 123f 9857 07be e723 c4bf
00000080: 6914 44bc d8be a5bf 6355 9bc0 f13b 0fc0
00000090: 3694 6d3f 82ce f7bf 413d 4f3f a162 3cc0
000000a0: 5267 e2be f140 37c0 4228 fabf 2d2b a9bc
000000b0: 383d b6be 81c7 96c0 9104 883e 0d83 043f
000000c0: eaec 60bf 5735 84bf 4b8c 36bf b264 32c0
000000d0: ce46 d3bf 9e20 acbe e347 ba3d a771 7cbf
000000e0: 89ae 273d 8d2a bebf e062 203e 04ad 6dc0
000000f0: 9c9c 57bf 35ab 7e3f a03d d1bd 9f1f f93c
00000100: 3050 4dbf 0ee2 ac3d e51d a5be be69 dfbf
00000110: 8387 02c0 bc6a 1dbf 3488 843e 7499 3fc0
00000120: da5e 293e ccc2 833d b55c 853d bb82 46c0
00000130: d9cf 17bf 6c32 8cbe 8d04 d0bf 9e53 45bc
00000140: 18ca 87bd 1520 873d 3ea7 85bd 8fac 97c0
00000150: 151f b3bf 6577 ecbe 5575 7a3f 035e 113d
00000160: dea1 9c3e a339 e2bd 4241 10bf 08a4 04bf
00000170: e0ad 33c0 74b8 88bf f23e 86bf 5265 9abd
00000180: 8c61 f13e 4258 abbc c197 a1be bc51 87bf
00000190: e5bb debf 3ffa f83d 0e1a 983d 6713 8f3d
000001a0: f43b e4bf a7d3 43bf 20f1 e4bf 3c1c 85bd
000001b0: df7c 22bf 0f10 e0bf d096 a9bf ac9f a3bc
000001c0: 2856 083f 04ad c8bf d010 0b3e 1a94 35c0
000001d0: db3d f6be 9393 64bd bb57 dcbe da36 673f
000001e0: 693e 6fbf 0097 58bf 26d9 903b f294 6dbd
000001f0: 8f0e 8cbd 3bc8 47c0 ba2a fabd d2b6 a3bf
00000200: 9815 9ebf bd9d 8bbe a1d7 95be 40e5 acbf
00000210: 5e7f 28c0 6f5c c23e bbb3 32c0 ca93 a03f
00000220: e9f5 19c0 9718 adbd 8530 70c0 ec24 62c0
00000230: 2871 0bbf 0ffe 76c0 6fa8 b0c0 a95c a9bd
00000240: d4fb dfc0 9507 1bbf 6e0b 073f 4ab0 c6bf
00000250: c3f4 ac3d e710 74bf 8dfc 73c0 c2c5 a7c0
00000260: f4de ddc0 9e6a cd3c cb69 febf 76e5 0fc1
00000270: bd19 00be 9b5f 4fc0 23b0 403d 06c5 98bf
00000280: f789 90bb 94a4 d13f cdd1 223e f77a 2fbf
00000290: d314 30bf f16f 09c0 9474 11bf 57cf 863f
000002a0: b72f 563e d907 1cc1 59d1 d4bf 2878 34bd
000002b0: 3d68 4ac0 3a1f bcbe db80 a5c0 2a26 95bf
000002c0: 5620 cbbe aab1 813e 03b9 57c0 8697 6fc0
000002d0: dcfe d3bf 79e4 92c0 2e5c 0b3f 72a2 8ebf
000002e0: 4c11 27bb 59bb 53c0 2111 b4bf 0bdd 413e
000002f0: eeb6 fe3e 1b73 f63f b542 68bf 9750 07bc
00000300: 8ef1 933e bb40 aa3c 2ef2 0ec0 3586 cfbf
00000310: bc9e 9dbe c613 403e 8fc2 18bf d86a 11bf
00000320: 17a8 bc3e cbd4 e73e 1b94 43bf ac71 023f
00000330: 067f 6bbf 4cf0 4cc0 031c dd3d fddf 03bd
00000340: 9f7e cdc0 1c03 0ac0 92f9 5fbf 6c3e c7bf
00000350: a3b4 f13e e661 e43d 783d f93d 25c6 bebd
00000360: bc9b d6bf b63f 80bd 4117 d9be cf10 343e
00000370: 4c19 873f 00a6 66c0 94d0 cfbf 185f 7fbb
00000380: 3bd0 e3bf 5589 e13c 6335 d5bf fcd6 bebe
00000390: c8bb 22bf 1a3c 45c0 29ab 16bd fc5e 8a3d
000003a0: 69c7 afbf 4354 08c0 c51a aabf 5fb0 08bc
000003b0: 41ed bbbd aedb 02c0 d6fd 54be 278e 823d
000003c0: 6620 12c0 409f abbf 2364 ccbf ec85 67be
000003d0: 396a 89be 8a20 de3f fb4d 0e3f 4064 74bf
000003e0: 02f0 e83e 0955 35bf 3f4e aabd d0f5 a33c
000003f0: 9406 d3bf 8454 c8bd 7bb5 8f3d 666b 23bf
0.24343339 -2.0994978 -0.7382527 -0.5218727 -2.2355192 -1.533891 -1.7246342 -0.1889176
-0.7172671 0.058101848 -0.62862676 -1.1581321 -2.5389695 -0.7084316 -0.11219157 -1.5657111
-0.7829031 0.3687809 -0.09204924 -2.9887683 -0.15368529 0.20656614 1.2501613 -8.974718
0.768616 0.031976134 -0.037449766 -0.11369471 -3.4781446 0.57391024 -0.13217008 -1.5323457
-0.011967757 -1.2948866 -4.854173 -2.2380335 0.92804277 -1.9359896 0.8095284 -2.9435198
-0.44219452 -2.8633387 -1.9543536 -0.02065047 -0.3559358 -4.7118535 0.26565984 0.5176247
-0.878615 -1.0328778 -0.7130782 -2.787396 -1.6505983 -0.33618635 0.090957426 -0.9861092
0.040937934 -1.4856735 0.15662718 -3.713685 -0.8422334 0.9947999 -0.10216832 0.030410586
-0.8020048 0.08441554 -0.3224937 -1.7454145 -2.039521 -0.6149099 0.25885165 -2.993741
0.16540089 0.06433639 0.06511823 -3.1017292 -0.59301525 -0.2738222 -1.6251389 -0.012043862
-0.06630343 0.06597916 -0.065260395 -4.7398143 -1.399386 -0.4618484 0.97835284 0.035490047
0.30592245 -0.110461496 -0.56349576 -0.5181279 -2.8074875 -1.0681291 -1.0487959 -0.075388566
0.47144735 -0.020916108 -0.31561092 -1.0571818 -1.7401091 0.12157106 0.074268445 0.069861226
-1.7830796 -0.7649483 -1.7886086 -0.06499526 -0.6347179 -1.7504901 -1.3249149 -0.019973598
0.53256464 -1.56778 0.13580632 -2.8371644 -0.48094067 -0.0558048 -0.43035683 0.9031807
-0.93454605 -0.8460541 0.0044204174 -0.058003373 -0.06838714 -3.121596 -0.12215181 -1.2790167
-1.235034 -0.27268782 -0.29266074 -1.3507462 -2.6327739 0.37961146 -2.7922199 1.2545102
-2.4056342 -0.08451956 -3.7529614 -3.5335035 -0.5446954 -3.8592565 -5.5205607 -0.08269627
-6.9994907 -0.60558444 0.52751815 -1.5522549 0.08445122 -0.9533829 -3.8122895 -5.2428904
-6.933466 0.025075253 -1.9876035 -8.993521 -0.12509818 -3.2402103 0.047042977 -1.1935127
-0.004410978 1.637835 0.15900345 -0.68547004 -0.68781775 -2.1474574 -0.5681851 1.0532025
0.2091664 -9.751916 -1.6626388 -0.044059902 -3.1626122 -0.36742574 -5.1719794 -1.1652272
-0.39673108 0.2533086 -3.3706672 -3.7436233 -1.6562152 -4.5903897 0.5443753 -1.1143324
-0.0025492487 -3.3083098 -1.4067727 0.18931977 0.4974894 1.9253877 -0.90726787 -0.00825896
0.2889523 0.020782819 -2.2335315 -1.6212832 -0.30785167 0.18757543 -0.5967187 -0.56803656
0.36846992 0.45279536 -0.76397866 0.509547 -0.919907 -3.2021666 0.107963584 -0.032196034
-6.4217067 -2.1564398 -0.8749019 -1.5565925 0.47208127 0.11151485 0.12169927 -0.09315137
-1.6766276 -0.06262152 -0.42400554 0.17584537 1.0554595 -3.6038818 -1.6235528 -0.0038966592
-1.7797922 0.027531305 -1.6656917 -0.37273395 -0.6356778 -3.0817933 -0.036784325 0.06756398
-1.373273 -2.130143 -1.328942 -0.008342831 -0.09176112 -2.0446582 -0.20799956 0.0637477
-2.2832274 -1.3407974 -1.5968059 -0.22609681 -0.26838854 1.735368 0.5558774 -0.9546547
0.4549561 -0.7083288 -0.083157055 0.020014673 -1.6486382 -0.09781745 0.070170365 -0.6383575

fc3.bias f4 [24]
00000000: 6066 08c0 97c2 973e 1d1f f5bd 025a a63d
00000010: 5ec9 ee3f d25d 01c0 63bb 80bf a62a 033f
00000020: 297c 9f3d df19 913f bef3 dbbf 3ddc 5f3f
00000030: d994 96bf 22c2 983f b058 af3c ad6a 9ebe
00000040: b7cf 623f f4d6 883f 432a 5fbf 592e c5be
00000050: 2138 77bf 0bfd 2dbf 094b b83e ea0e eabf
-2.1312485 0.29640648 -0.11968825 0.081226364 1.8655202 -2.0213513 -1.0057186 0.5123695
0.077873535 1.133602 -1.7183759 0.8744543 -1.1764175 1.1934245 0.021404594 -0.30940762
0.885982 1.0690598 -0.8717386 -0.38511923 -0.9657002 -0.6796424 0.35994747 -1.8285801
