resources/models/hand_landmark_model_2.pth (torch, 113940 bytes, 6 tensors)

fc1.weight f4 [128, 63]
00000000: 2254 263e e751 9e3e 4b15 a43e 6bea 493e
00000010: 7569 9c3e 72f8 3b3f 340c 523e 5841 243e
00000020: ea62 b13e fc47 8fbd 723e d43e 9a56 77be
00000030: 32a0 95be e7ed 0c3e 8a86 b6be 0422 21bd
00000040: 0299 af3e 9936 ab3e a5cd 50be 3f91 b03e
00000050: c08a 103e f1c1 47be 465d 273e 8b86 6bbe
00000060: bb72 e4be 1b0b 8dbd 403a 67be aea2 62bb
00000070: da6c 133f c7f3 8b3d 8e3a 94bd dccf 5b3d
00000080: 70a2 f83d 89f3 25bd ad7e b43c 27eb c33e
00000090: 535c babd 6604 f33e 8da4 303f 96ad 40be
000000a0: 78c3 043f e75d 9a3b ef24 28be f78a cbbd
000000b0: 1ca0 e23e 06cd 88be 46e1 3c3d abaa 2e3f
000000c0: 16d2 1cbe 2704 123e afce 533f b018 96be
000000d0: 0671 d13e f210 47be b3f6 6dbe f5dc 883e
000000e0: 48b5 bc3e 117f 80bd b004 ffbd 103a 6e3e
000000f0: 247a 41bc d3d4 3dbe 5048 053e e508 0ebe
00000100: 522a 53be db7e 01bf 12a5 ac3c 3eb6 c33c
00000110: 0315 5f3e c6f1 3bbc a288 9f3e d0b1 be3d
00000120: 1234 3c3e 2f16 fd3e d332 8fbe 3974 af3d
00000130: f8de 983f 9613 72be 6d8b 06be b7e0 19bd
00000140: d53b ab3e 93b6 f4bd f403 10bf 56a7 8c3e
00000150: 63e7 d83c 7c16 33bf 58c9 493e 4f7d 043e
00000160: 7c4b 47bf d201 093e cfea bcbd 3f81 393d
00000170: d65a c43e a6c0 593c 7d2f 8abe 78cd f4be
00000180: 399c 87bc d2f4 bc3e a218 8ebe 77d0 a33d
00000190: df10 273f 1c7b b03b 5b1d f33d fc14 fd3b
000001a0: ffc8 003f 01cf 9c3d 8105 cbbe 7dbd 08bf
000001b0: dd78 9a3d 99a2 383f b9c9 79be 488d 0abe
000001c0: 803e b33f 7d7b 083f e8de b3bc 81da 73be
000001d0: 5962 ec3e 9685 383d 66a6 59bf cafb 993e
000001e0: 02f1 093e 80bf 01bf 0b4a 963e dfc4 3f3d
000001f0: 30aa 92be 4e24 1e3f a926 9a3c 63cf 99bd
00000200: 0ee3 ce3d 4660 aabd 5178 893d 8f81 babd
00000210: 98ed c5bc 5246 54bd d046 1e3d 707e 773d
00000220: 8ecb 8fbb 4466 a83d b5ae 81bd f10c 8abc
00000230: db08 5cbd eff8 3dbd 5a75 b7bd 9f24 efbc
00000240: a613 09bb 4fc2 bcbd 5fe6 ab3d a447 9ebd
00000250: a3fb a7bd 0d28 473d d123 a4bd 956a 633d
00000260: 6f98 983c 2e07 a93d 2b32 b33d 26c1 0abe
00000270: 7cf6 fcbd b783 a5bc cb68 69bd 60ed c4bd
00000280: 29eb 9dbd 5d6b cabd b9a0 79bd 11ed cdbb
00000290: f3a5 d33d aa7b a93c e5ef 0cbe 5738 07bc
000002a0: 3d02 afbb fc42 093d a855 d03c 2c69 99bd
000002b0: d4be 643d 650b 8e3d 83f4 bb3d c3aa 0ebe
000002c0: 3f3a e9bb 6e66 60bd 6b2d ae3d 7799 df3a
000002d0: b224 c63d 72c4 533d 0018 c23d 5d55 e4bd
000002e0: 30f3 fbbd 2e7f e7bd 272a 653d d25a 1bbd
000002f0: ec55 b7bd 346a 943c adf0 d2bc 57af 7c3d
00000300: 2be9 953d 2d57 00be 5c46 b5bc 3904 9f3d
00000310: a0ab ea3b cb7a 013e 3b8f 823d bf93 d9bd
00000320: 6708 c73d e5cc 06be 8617 e4bd 0524 253d
00000330: 61ff debc 11d7 8abd ce14 3a3d 9b5f eabc
00000340: ddc8 77bc 5604 f23d 1f56 b73d a5d7 f1bd
00000350: 6b22 c5bd 7c38 acbd cf40 62bd a211 d43d
00000360: 0f8a c8bd a5c7 08be 4867 c8bd d248 773d
00000370: aa58 d1bd 02d3 debd 9d9d 06bd 4822 eb3c
00000380: 2a79 5bb8 abf8 a0bd d495 8d3d 0ab7 713d
00000390: 0115 073c 692a babd 0f78 d3bc a5fb fcbd
000003a0: 6163 373d 083b 7f3d 8722 b6bd 50ff 373b
000003b0: 9b81 133d d155 a1bd 6721 ba3c bf51 94bc
000003c0: dfde 053d a2e4 c6bd c98e 8fbc d0a8 c43c
000003d0: 3af1 e2bd f38c 9ebd 284b a73d 6fea 9cbd
000003e0: 3913 a73c 5917 c93c 6a28 2cbd ce2a 17bc
000003f0: a86a 98bd 24b9 87bc 42fb 14bd 70a5 6ebd
0.16243032 0.30921862 0.32047495 0.1971833 0.30549207 0.7342597 0.20512468 0.16040552
0.34645778 -0.06996152 0.41453892 -0.2415413 -0.29223782 0.13762628 -0.3564952 -0.03933908
0.34296423 0.33440092 -0.20390947 0.34485814 0.14115429 -0.19507577 0.16344175 -0.23000543
-0.44618782 -0.06886884 -0.22580814 -0.0034581828 0.5758797 0.06833606 -0.07237731 0.053665027
0.121403575 -0.040515456 0.02203306 0.38265345 -0.09099641 0.47464293 0.69001085 -0.18816218
0.5186076 0.004710901 -0.16420339 -0.09938615 0.4426278 -0.2671892 0.046113275 0.6822917
-0.15314516 0.14259396 0.8273725 -0.2931571 0.40906543 -0.19440058 -0.2323864 0.26731077
0.36857057 -0.06274236 -0.12452066 0.23264337 -0.011808906 -0.18538217 0.13015866 -0.1387058
-0.20621613 -0.5058419 0.021074805 0.02389061 0.21785359 -0.0114712175 0.3115893 0.09311259
0.18379238 0.49430987 -0.27968463 0.085670896 1.1943045 -0.23640284 -0.13139124 -0.03756782
0.33444086 -0.11948886 -0.5625603 0.27471417 0.026477521 -0.69956183 0.19705713 0.12938426
-0.77849555 0.133796 -0.09224474 0.045289274 0.38350552 0.01329056 -0.26989356 -0.4781301
-0.016553985 0.36905533 -0.27753168 0.07998746 0.6526012 0.0053857695 0.118708335 0.007723449
0.50306696 0.0765667 -0.39652637 -0.53414136 0.07542584 0.72123104 -0.24393357 -0.13530457
1.4003448 0.5331343 -0.021956876 -0.23813821 0.46168783 0.045049272 -0.8501953 0.30074912
0.13470843 -0.5068283 0.29353365 0.04681861 -0.28645468 0.61774147 0.018817263 -0.07510259
0.10101901 -0.08319144 0.06712402 -0.091067426 -0.024161145 -0.051824875 0.03864175 0.060423315
-0.0043882793 0.082226306 -0.06332151 -0.016851874 -0.053719383 -0.04637998 -0.0895793 -0.029192267
-0.0020916252 -0.09216749 0.08393549 -0.07728508 -0.08202293 0.04862218 -0.08014644 0.055521566
0.018627374 0.082533225 0.08749803 -0.13550243 -0.12351701 -0.020204408 -0.056984704 -0.09615588
-0.07710869 -0.09883759 -0.060944293 -0.006284364 0.10334387 0.02068885 -0.13763388 -0.008253179
-0.005340843 0.033511147 0.02543147 -0.07490763 0.05584605 0.06935767 0.09177496 -0.13932328
-0.007117539 -0.054785185 0.085047565 0.0017059286 0.09674968 0.051701017 0.09477234 -0.11149094
-0.12302244 -0.113035545 0.055948403 -0.03792841 -0.08951935 0.018117048 -0.025749529 0.061690655
0.07319864 -0.12533255 -0.022128277 0.07764477 0.0071615726 0.12644498 0.06374975 -0.106238835
0.097183995 -0.13164099 -0.11137299 0.040317554 -0.027221384 -0.06779302 0.045429997 -0.028610041
-0.015123573 0.11817233 0.08951973 -0.11808709 -0.09625705 -0.08409211 -0.055237588 0.10354926
-0.097919576 -0.13357408 -0.09785324 0.06037218 -0.102219895 -0.1088009 -0.032865155 0.02870287
-5.232651e-05 -0.0785993 0.06913343 0.05901245 0.008244754 -0.0909012 -0.025814084 -0.12352685
0.04477251 0.062312156 -0.08893304 0.0028075762 0.036012273 -0.07877696 0.022721006 -0.018105386
0.03268325 -0.09711577 -0.01752414 0.024006277 -0.110811666 -0.07741728 0.08168632 -0.07661902
0.020394908 0.024547266 -0.04203073 -0.009226514 -0.07442218 -0.016567774 -0.03637243 -0.058263242

fc1.bias f4 [128]
00000000: 0899 29bf 5984 75bd 529c 5dbd 083e 0b3d
00000010: 0067 8f3b 9afb d7bd 638f d3be b4af 8abe
00000020: ccb8 29be 971c bebd 02dc b53d a771 6a3e
00000030: 22ee f6bd d0a9 413d 9a2d 8abe 0df5 f53e
00000040: a0f7 673c a90c 173f ce49 923e 431c 0ebe
00000050: 7a6a b8bd 43a4 eabd 2274 abbd adb2 f7bd
00000060: 8d55 543d 1629 f8ba d485 97bc a30c 873e
00000070: 5850 6bbe 689a fe3e 585a ddbd 7be2 62be
00000080: 505d 51be 5d9a 903e fa79 e6bc 296d 4dbe
00000090: 4e1a 6fbd 8d2f 7c3d b2a2 70bd ea81 d73e
000000a0: 389e 813e f65e 963e 90e0 7dbe 012f aabe
000000b0: 81f6 93bd 9b10 513f f38e e3bb 81f5 4d3e
000000c0: 142b f73d 6fc1 603e 334e 543c dc8b b2bd
000000d0: 9a6f c4be ace6 113f 4141 573e 9bed e7bd
000000e0: c307 0d3f b35b 603c 9a86 1d3f 5638 f2bd
000000f0: 3202 5f3e 6ae4 ac3e cc85 323e 925c 58be
00000100: 095b a5bd b92c 26be 7762 253e 4e9d 1d3e
00000110: f4df fe3d 6c9e e53e 63f7 3a3f c2c0 ea3d
00000120: 872e e03e 0e8c a43e 348f 79bc 8ad4 9f3d
00000130: 7be6 bdbe 3e21 b93e 2dca 973e 482c 713e
00000140: 9446 b53d 3e3d 5f3d 3a56 3fbd 95a7 203f
00000150: 4e87 19bd 04c9 eb3e 1910 033f 3544 e73d
00000160: 059a 03be 219f 913e 7acc f2bd b205 3c3d
00000170: b70a d7bd ecee 3dbd a071 663e 2667 293e
00000180: 378a 793d d1ff 8bbd 2cbc 873d 2358 2e3e
00000190: a007 9d3d 8210 7b3e 98ef 433e b9e0 c4bd
000001a0: 978c e33e 8653 5fbe 5e43 493d 38f7 c83f
000001b0: cb79 0ebe 971a e23e 3867 d53d 06d4 083e
000001c0: 102c 093d 42ff e03e 3468 e2bd 48fb 92be
000001d0: d11b 11be 8efb 1bbd 3db1 863e 2cbb 02be
000001e0: bd13 4d3d de81 eb3d e965 8d3e 2d06 0bbf
000001f0: 186e dc3e 50d5 98be c0c8 8e3e 4fb2 34be
-0.6624913 -0.05994067 -0.054104157 0.033994704 0.004376292 -0.10546036 -0.41320333 -0.27087176
-0.165744 -0.09282797 0.08879854 0.22894917 -0.12057139 0.047281086 -0.26987916 0.4803852
0.0141581595 0.5900369 0.28571934 -0.13877968 -0.09004684 -0.11457112 -0.0837176 -0.120946266
0.0518394 -0.0018933143 -0.018496431 0.2637683 -0.22979867 0.49727178 -0.10808247 -0.22156708
-0.20445752 0.2824277 -0.028134335 -0.20061173 -0.058374695 0.061568785 -0.05874891 0.42091304
0.25316024 0.29369324 -0.24792695 -0.33238986 -0.07224751 0.8166596 -0.006944531 0.20113184
0.120687634 0.21948789 0.012958097 -0.08718082 -0.38366395 0.569926 0.21020986 -0.113246165
0.5508997 0.013693738 0.6153351 -0.118271515 0.21778181 0.33768016 0.17433852 -0.21129063
-0.08074004 -0.16227998 0.16150843 0.15392038 0.124450594 0.4484743 0.7303373 0.11462547
0.43785498 0.32138103 -0.015231896 0.078042105 -0.37089905 0.36158174 0.29646435 0.23552048
0.08851352 0.054501764 -0.04671309 0.6275571 -0.037482552 0.460518 0.5119644 0.11292306
-0.12851723 0.28441718 -0.11855407 0.04590387 -0.105000906 -0.04637043 0.22504282 0.16543254
0.060922828 -0.068359025 0.06627688 0.17025809 0.0766747 0.24518016 0.19134367 -0.09613175
0.444432 -0.21809205 0.049136512 1.5700445 -0.13913648 0.4416091 0.10420078 0.1336213
0.033489287 0.43944746 -0.110550314 -0.28707337 -0.14170767 -0.038081698 0.26307097 -0.12766713
0.050067652 0.114993796 0.27616814 -0.543063 0.43052745 -0.29850245 0.27887535 -0.17646144

fc2.weight f4 [128, 128]
00000000: bdfb ccbd 796f 4b3d 38e2 463c a21e 8bbd
00000010: ce4d 313d 6454 f4bc 6d8e 03bc 113c 91bc
00000020: 2c93 883c e0c3 55bc 117c b1bd 4d87 dabc
00000030: feb8 453d b2ba 24bb b40c 213d 0818 133d
00000040: a132 b43d ee60 4fbd dee4 65bc ba84 d3bd
00000050: c720 3ebd c0c6 f1bc 309a ebbd 2011 393c
00000060: 634a bdbc 8788 753d 50a0 08bd 0090 e2bb
00000070: df36 94bd da2c 7fbb 6008 2fbd 143b b4bc
00000080: 7c30 82bd 3584 afbd f900 c0bd 64a8 71bd
00000090: c0f6 3e3c 7ec1 ccbd 20ca 56bc 4164 863b
000000a0: becc b9bd 038f bdbd 7640 2ebd 9c97 5b3d
000000b0: bba5 a63d b78b 1fbb e654 3d3d 537e 9f3d
000000c0: e822 44bd cbe4 e4bc b31b 87bd e29e 2a3d
000000d0: 16ed 803c 8d70 dc3c 1eef a33c 2093 90bd
000000e0: 3a52 613d a961 a1bd 8cfa 7bbc 80bc 75bb
000000f0: c834 b9bd 66c1 27bd efae e2bc d313 8d3c
00000100: b8d4 d9bc 3447 f53c 953f a7bd 2246 95bc
00000110: 7695 7dbd 2f21 afbd fd18 febd aa7f 933c
00000120: 0f83 dfbd d507 6fbd 0b78 ac3b a763 ae3c
00000130: 685b bbbd 180d a5bd 2e2f e4bc bff3 133c
00000140: cf22 883c 13c5 413d edfc 963d 3d24 793d
00000150: 94ff b1bd d29b 95bd 90ac 71bc c1b8 993d
00000160: c8f4 443c 7ec8 833c 2049 b0bb 04e1 fd3c
00000170: 40cc 813a 0934 5e3d 3fd8 acbd 85db b9bd
00000180: 2b40 36bd 6edc eabc 8052 893d 8210 873d
00000190: 38ed a4bd 78fa 99bd c866 7fbd 1055 fa3c
000001a0: 3f92 b63c 654c 46bd ade6 5cbd 6127 0fbd
000001b0: 4eb0 1c3d cb7d 7a3c 2586 efbd 1f3a 963c
000001c0: 442f 62bb a9a0 81bd e08b 64bc 0f18 8cbd
000001d0: 8a4c 463d a73c 9e3d 3396 b5b9 2422 e5bd
000001e0: 9d9f eabb 3c6c 8b3b 3ceb 62bd 2bea dcbd
000001f0: 4cb4 93bd e154 bfbc 994c 2bbd 1160 a73c
00000200: 17ce 4bbe 8e64 9abe d477 e0bc 8cb2 74bd
00000210: a878 5c3c 047e 6cbd 388b 0e3e ff9d c8bd
00000220: 4023 c6be d767 c23d a818 1c3e aae4 333f
00000230: fdbf a33d 3f57 1abf 482b 823e bc19 19be
00000240: d202 52bd aec9 393f 0624 0d3e 23de c4be
00000250: e89e 9ebd d29a 163d b5c8 f93d 8873 e1bc
00000260: 8dd1 0ebf eec3 c93e c0a0 063f 3389 ea3d
00000270: f155 083f 1084 303f cb2e 693e 7ee4 3cbe
00000280: 122b ab3e e3b2 833f 8c4a 10c0 2350 3fbe
00000290: c064 c43a c26d 193e 32e4 013d b9ba 4c3c
000002a0: 87e4 733f 14ab a7be defe db3e cd2d 20bc
000002b0: 0102 8f3d 6826 8cbe 55ac abbd d312 353f
000002c0: d611 6c3d 506e 523d 27b0 4f3f 144a c5be
000002d0: b3e1 3ec0 04e7 143f 9f09 49be 9cf7 923c
000002e0: 1ffb e33e f8e8 13bf ece2 02c0 c03f 5a3d
000002f0: ccb1 26be e185 bb3c 1d70 913e fba7 b23e
00000300: 8a5d 2e3d 2fa0 92bf 521d f4be 5ba0 cb3d
00000310: ed42 c3be 4643 2dbe 855b c8be 221a 473e
00000320: 8ffe 823e 1873 fe3e 7829 b43e 29b9 b73e
00000330: 02f5 4cbe 4aa3 3d3e 18a1 e83d eed6 e8bf
00000340: 5315 39bf 7b8d c53e e911 12be 9423 35bf
00000350: 2a2e f7be 2dbd 46bf 705c bebd b8a5 19bd
00000360: 28a6 0c3c b5a1 83bf 1425 b4bd 9e73 e9be
00000370: d035 a5bb de73 52bf 735b a23d 2285 063f
00000380: 3540 6dbe c00b a8bd 0053 743f e369 b03d
00000390: 1031 923e 1b9b 94bc 3981 2c3f c128 b5bd
000003a0: aa95 4f3f 7eb9 113b dc76 0cbf 1df6 903e
000003b0: d0bb 86bd 19d6 673e c32a 0d3e b2ad 89bd
000003c0: 139f b5bd 5001 79be 3225 b2bd 6680 f4bf
000003d0: ab51 683d 617a 27bd 12fe 5cbf 69d7 fc3d
000003e0: c3a2 97be 3392 8f3f 6112 f83d 8d31 46bf
000003f0: e59d 41be ed8e 2fbf b426 0cbf 5705 40bf
-0.10008953 0.049666855 0.012138896 -0.06792952 0.04328709 -0.029825397 -0.008029562 -0.017728837
0.01667174 -0.0130471885 -0.08666242 -0.026675845 0.048272125 -0.0025135693 0.039318755 0.03591159
0.08798719 -0.05062955 -0.014031617 -0.1032805 -0.046417978 -0.029513717 -0.11504018 0.011295587
-0.02310676 0.059944656 -0.03335601 -0.006914139 -0.07237028 -0.0038936646 -0.042732596 -0.022000827
-0.06356904 -0.08570138 -0.093751855 -0.05899848 0.0116555095 -0.09997843 -0.013109714 0.0041013067
-0.090722546 -0.09255793 -0.042541943 0.053611383 0.08137079 -0.002434475 0.046223544 0.07787766
-0.04788485 -0.027941128 -0.0659708 0.04165543 0.015738051 0.026909137 0.02001148 -0.07059312
0.055010058 -0.07879955 -0.015379559 -0.0037496388 -0.0904327 -0.040955923 -0.027671305 0.017221367
-0.02659069 0.029941179 -0.08166424 -0.018221918 -0.061910115 -0.08551251 -0.1240711 0.01800521
-0.10913669 -0.05835708 0.0052633337 0.021287752 -0.09148294 -0.08059138 -0.027854528 0.009030282
0.01661816 0.047307085 0.073724605 0.060825575 -0.08691326 -0.07305111 -0.014750615 0.07505942
0.012021251 0.016086813 -0.005379811 0.030991085 0.000990279 0.054248843 -0.08439683 -0.09075073
-0.04449479 -0.028669562 0.06705189 0.065949455 -0.080530584 -0.07518476 -0.06235388 0.03055814
0.022286532 -0.0484127 -0.053930927 -0.034949664 0.038254075 0.01528878 -0.11695508 0.018338261
-0.0034513036 -0.063294716 -0.013949364 -0.06840526 0.048412837 0.07726412 -0.00034634917 -0.111881524
-0.0071601407 0.004254846 -0.05540012 -0.107868515 -0.07212123 -0.023355903 -0.041821096 0.02043155
-0.19902836 -0.30154842 -0.027400889 -0.059740588 0.013456501 -0.057737365 0.13920295 -0.0979576
-0.3869877 0.09492462 0.1524378 0.7027079 0.07995603 -0.60289377 0.25423646 -0.14951223
-0.05127222 0.72573364 0.13783273 -0.38450727 -0.07745153 0.036768742 0.12196485 -0.02752091
-0.557885 0.39407295 0.52589035 0.1145195 0.53256136 0.6895151 0.22771756 -0.18446538
0.33431298 1.0288967 -2.25455 -0.18682913 0.0014983639 0.14983276 0.031711765 0.01249569
0.9527058 -0.3274771 0.42967886 -0.009776545 0.06982804 -0.27373052 -0.08382479 0.7073185
0.057634197 0.051374733 0.8112816 -0.3853308 -2.9825256 0.58165 -0.19632576 0.017940335
0.44527528 -0.5777736 -2.0451002 0.053283453 -0.16278762 0.022890987 0.28405848 0.34893784
0.042569675 -1.1455134 -0.4767862 0.09942695 -0.38136998 -0.16920194 -0.39132324 0.19443563
0.25584838 0.49697185 0.35187888 0.35883453 -0.20015338 0.18519321 0.11358851 -1.8190591
-0.72298163 0.38584504 -0.14264645 -0.7075741 -0.48277408 -0.7763241 -0.09294975 -0.037511557
0.008584537 -1.0283724 -0.087961346 -0.4559602 -0.0050418153 -0.8220805 0.07927599 0.52546895
-0.23169024 -0.08205366 0.9543915 0.08613946 0.28553057 -0.018140366 0.6738468 -0.08845664
0.81087744 0.0022235806 -0.54868865 0.2831277 -0.06578791 0.22640266 0.13785844 -0.06722583
-0.088682316 -0.24316907 -0.08698501 -1.9101684 0.05671851 -0.040888194 -0.8632518 0.12345774
-0.29616365 1.1216491 0.121128805 -0.7741936 -0.18907888 -0.6857746 -0.54746556 -0.7500815

fc2.bias f4 [128]
00000000: 3539 c1bd a9d5 e93e 4d80 8f3d 2c79 233e
00000010: a8b3 953e dceb f2bc 3b24 a1bd 8b73 12be
00000020: 094f 24be fd16 06be a155 1f3d cc00 c8bd
00000030: 8b2e 0bbe 1a19 373f 52f2 92be a649 0a3d
00000040: ab9a 963e ffba ecbd 7dce bd3e 3aed d1bc
00000050: b006 dfbd 8531 703e 7524 d73d b62e ec3d
00000060: affc 88be 4082 073f fa33 2c3d a03e f5bd
00000070: 7386 883e ea9f 7d3c 07a1 cb3e 18ed 07bd
00000080: a542 943d a02c 713e ad98 983e 2d7b c6be
00000090: 3f3c 0b3f 712c a73e 57ac bcbd 2cd4 cf3e
000000a0: d37c b3bd 5d3b b83c 63e6 223d 9ece 03bd
000000b0: ffe4 563c 23f2 00bd 565c 33bd e71b d9bd
000000c0: 90c8 62bc 66a1 9ebd 9a1b b4bd f24c 8d3e
000000d0: 5bd8 b6bd 1a80 273f c3b7 d63e 03ad 4d3e
000000e0: 6c59 073e d15d f9bd c174 9f3e d2db 543e
000000f0: 124c 77bd c1c3 f13c 6238 8dbd b200 f03e
00000100: 40a2 2ab6 1a8f fd3e 0239 d7bd 5ef7 bb3e
00000110: bb9f dfbd 8557 2b3f df9a 343f e3a0 c6bd
00000120: 3a2a 653e 39c9 813d 8980 893e 4d2d d6bd
00000130: 101b dfbd 2bba df3d ac12 44bd 1bf8 c73d
00000140: 3bc4 9ebd 2f72 88be 1016 00be f2eb ec3b
00000150: 8696 a33e 4aec bebe 92a5 203e 1a58 123e
00000160: 9a7d ce3e c530 0ebe 1d6b d13c 42fb d93e
00000170: 4e65 b13e aeba 97bd d16a b0bb cdb9 b03d
00000180: fbef bebd a653 983e 639a 54bd 3860 313b
00000190: 2d15 60bd 8f18 a5be 7123 9bbd 5aa3 303e
000001a0: 2542 fe3e deb4 e1bd 4f48 81bd f96c d1bc
000001b0: 10d0 abbe 9b46 6e3e 993d bb3c 8fd8 99be
000001c0: ed6f 323d 6754 913d 1b23 48bc 1540 373f
000001d0: 2614 c1bd a655 68bd 84fd f73e 03b7 09be
000001e0: dd1c d43e 1950 273f 8608 0cbe a7da a4bd
000001f0: c716 a6bd 7e74 d93c 2b4e 613e e3a5 9dbe
-0.094347395 0.45670822 0.07006893 0.15964192 0.2923863 -0.029653482 -0.078682385 -0.14301889
-0.16045775 -0.13094707 0.03890002 -0.09765777 -0.13591973 0.71522677 -0.287005 0.033761643
0.29414877 -0.11559104 0.370716 -0.025625814 -0.108899474 0.2345639 0.105050005 0.11532347
-0.26755282 0.5293312 0.042041756 -0.119748354 0.26665077 0.015480021 0.39771292 -0.033185095
0.07239274 0.2355218 0.29803982 -0.3876585 0.54388803 0.32651094 -0.09212559 0.40591562
-0.08764043 0.022489244 0.039770495 -0.032179467 0.01311612 -0.03148092 -0.04378923 -0.10601025
-0.013841763 -0.07745628 -0.08794327 0.27597767 -0.08927985 0.6542984 0.41937074 0.2008553
0.13217705 -0.12176097 0.31143764 0.2078698 -0.06037528 0.029512288 -0.0689552 0.4687553
-2.5426416e-06 0.4952324 -0.1050892 0.36712164 -0.10919138 0.6693042 0.70548815 -0.096986555
0.2237939 0.06337208 0.26855877 -0.10457859 -0.10893834 0.109241806 -0.04786937 0.09764119
-0.07752272 -0.26649615 -0.12508416 0.0072302753 0.31950778 -0.3728965 0.1568816 0.1429142
0.403302 -0.13885792 0.02556377 0.42574507 0.34647602 -0.07408653 -0.0053838273 0.08629189
-0.093231164 0.2975132 -0.051905047 0.0027065407 -0.054707695 -0.322453 -0.07575119 0.17249814
0.4965984 -0.11020826 -0.0631262 -0.025564658 -0.33557177 0.23269121 0.02285652 -0.30048034
0.043563772 0.070961766 -0.012215401 0.71582156 -0.09427671 -0.056722306 0.48435605 -0.1344872
0.4142827 0.65356594 -0.13675126 -0.08049517 -0.08109813 0.026544806 0.22002475 -0.30790624

fc3.weight f4 [24, 128]
00000000: 2017 07bb c8fc 96bf c970 efbc da50 b33e
00000010: 3f16 52bf c7e1 c2bd 7117 8ebd ab7d 5c3d
00000020: e3c9 d9be 0761 ffbd e897 4abf f308 4d3d
00000030: 575d a3bc 187b 40bd 499c da3e 35a6 f4be
00000040: 8c24 c5bf ef1f c9bf df30 30c0 7d88 0cbc
00000050: 9ee3 593d 388b 7e3c 3f38 d33e 9b29 edbe
00000060: e563 b53e cee7 0b3e a54c a5bd ec20 adbc
00000070: 8c74 28bf e7fb b1bd 2e86 173c 7150 313c
00000080: 9059 693e 96c7 a73e ff1f 9cbb 57b3 e43e
00000090: 7e96 10c0 4dc0 ac3e 5442 0bbd 34d9 fd3d
000000a0: c3b4 02bd b9a2 8dbc 1e1b cabe 3a64 2fbd
000000b0: a1de 163d c47b fabd ff0d 7dbc f983 42bc
000000c0: c41c c03a 6627 89bc d071 c53c f1a7 093e
000000d0: 958b febd ca35 55be fb5d 4d3f e13c 3fbf
000000e0: cf9d eebc d3e5 713e 9213 61be 7147 e43e
000000f0: 476f 973d d815 f33e c276 903d 8396 463f
00000100: e63b 3e3e fd93 dfbf cab2 abbf 0b4b 48bd
00000110: a7d2 8ebd 1d31 7abf a750 763e ca58 8f3c
00000120: 3cf0 fa3c ae6a 73be 4194 583f cbce 37bd
00000130: 9e38 42be 7785 c83e 8abd 7a3d b3ba d0be
00000140: 8f61 093c 970d 99be 2d68 a3bd 0cbc 89bf
00000150: e1f9 79c0 0885 073e 344a 10bf 114a b4be
00000160: 2d1a a53e e5be 34bd 86bd 823e ef64 9e3e
00000170: fcf9 0e3d c04b 253d 9861 11c0 00a3 763f
00000180: e17b 793c 5ad2 313e 52af ad3d aa2d e33c
00000190: dfd8 4a3d 5755 7e3e 8cd0 a3bd 6b18 2bbf
000001a0: 2281 30bf ebd9 13be 60d2 123e c710 42bf
000001b0: d021 043f 0524 133f 8f5b 3f3e c2c2 d73e
000001c0: 92ed 913c 51df a83e abe9 81bc 83bd 0ec0
000001d0: 0d81 c03b 7450 773d 0fd8 13be 5b53 8fbe
000001e0: 92b6 2dbe 0ee2 e8be c522 6cbf d31f 753e
000001f0: 035c 0fbd 59cf 2bbd 990f 17be 2697 e3be
00000200: 7661 203c 9c31 763e d50d 993d 7e75 b8bf
00000210: 5a5e b4bd 1620 1ebd a827 d6bd 7304 f03a
00000220: e53c 833e 35e1 c43c 4d8a b7be 73d5 613d
00000230: c7ae 153d 2307 fcbd 17a5 f2bc 7087 b33e
00000240: a850 05c0 c83f 17bf a3c3 993e 801e 753c
00000250: 5cc6 f13c bed3 d1bd cd7b af3e bdf6 debe
00000260: ceba b3bf fb8d b63e bc71 86bd bf5b 813d
00000270: ac76 703e 0c9a a03b a167 a63e 7508 17bc
00000280: 8013 23bf 8145 84bd 30d8 e6ba 2961 31c0
00000290: 3fe6 443e bbcf 0b3e bf66 9b3b b55c ecbe
000002a0: 553a 4abc 8a60 1b3f e984 c3bc e013 703d
000002b0: 5a65 a2bf f7e1 e43d 2ae0 c63d e8aa bbbd
000002c0: b89e adbd feb2 e93c e54b 223d 6f5d 03bf
000002d0: 20db 1ebc 95c3 35bd e58d a73e 34c7 6abf
000002e0: b106 913e 06ba b63e b422 e83d 14dc 2ec0
000002f0: fb1d 123d 2060 abbf 2431 31bd 79ca c53e
00000300: b8aa b73e e609 653e 08e6 4ebd abc5 04c0
00000310: cc3b 093d 7b0f 4cbd 2ee7 1a3e 2d41 c3bd
00000320: 28f9 85bf e032 05bf 9073 90bf 6fcf e9bb
00000330: 124e 50be 0c59 04c0 2275 f5bb c4ec 4d3e
00000340: ce9e 993c 27ad 233e 4432 8bbd 5fcd 023f
00000350: 8221 92be eb2c 0b3e 444b 193e c3a4 82bf
00000360: f20c f53d 54c9 a23c 7d31 ebbe deee 9f3e
00000370: ff02 273e ac95 1ebc ffe7 5d3e 1188 22c0
00000380: e268 803d 149c 083f 88fb d8bf 5523 973d
00000390: 805e afbd a6b7 0c3f 3810 acbf 01bb a8be
000003a0: 2141 12c0 72f2 ca3e 9f3c 5d3c 9ae3 e8be
000003b0: b398 2abd ef74 5e3e 0e7e 88be ba89 d8bf
000003c0: 8a48 eabf dca6 98be 9c4f df3c abe0 9abd
000003d0: e61e dcb9 3ba9 7ebc d530 9fbe 3163 6cbe
000003e0: c17f c33b c717 4abf bece 8dbe 7e6f a0bf
000003f0: 3446 68ba 548d 3b3d 4f80 debd fd7f 33bf
-0.0020613149 -1.1795893 -0.029228585 0.35022622 -0.82065195 -0.0951572 -0.06938065 0.053830784
-0.4253684 -0.12469678 -0.7913804 0.050057363 -0.019941969 -0.04699239 0.4269736 -0.47783056
-1.5401778 -1.571287 -2.7529829 -0.008577463 0.05319559 0.015536122 0.4125385 -0.46320805
0.35427776 0.13662645 -0.080712594 -0.021133862 -0.65802836 -0.08690625 0.0092482995 0.010822401
0.22788072 0.3276946 -0.0047645564 0.44668075 -2.2591853 0.33740464 -0.033998802 0.12394944
-0.03191067 -0.017289506 -0.39473814 -0.042820193 0.03683341 -0.12230638 -0.015445231 -0.011872285
0.001465701 -0.01674242 0.024102122 0.13442971 -0.12428967 -0.208213 0.8022153 -0.7470227
-0.029127983 0.23622827 -0.21980122 0.44585755 0.07394271 0.47477603 0.07053901 0.7757341
0.18577537 -1.7467037 -1.3413937 -0.04889969 -0.069737725 -0.9773119 0.24054204 0.017498393
0.03063213 -0.23771164 0.8460122 -0.044874948 -0.1896691 0.39164326 0.061215915 -0.4076744
0.008385076 -0.2989318 -0.07978854 -1.0760512 -3.9058764 0.13234341 -0.56363225 -0.35212758
0.32246533 -0.044127364 0.2553522 0.3093638 0.034906372 0.040355444 -2.2715816 0.9634247
0.015227289 0.17365399 0.08480705 0.027731735 0.04952323 0.24837242 -0.079987615 -0.66834134
-0.6894704 -0.14438598 0.14338064 -0.7580685 0.51614094 0.57476836 0.1868727 0.42140776
0.017813478 0.32982877 -0.015858492 -2.2303169 0.005874759 0.06037946 -0.14437889 -0.27993283
-0.16964176 -0.45484966 -0.92240554 0.23937921 -0.03499986 -0.04194579 -0.14752044 -0.44451255
0.0097888615 0.24042362 0.074733414 -1.4410856 -0.08807059 -0.03860482 -0.104567826 0.0018311873
0.25632396 0.024033168 -0.35847703 0.0551352 0.036543634 -0.12306049 -0.029619737 0.35064268
-2.0830479 -0.590817 0.3003207 0.014960885 0.02951353 -0.10245465 0.3427414 -0.4354762
-1.4041383 0.35655198 -0.06564662 0.06316327 0.2348277 0.0049011763 0.32500938 -0.009218325
-0.6370163 -0.06458569 -0.0017612036 -2.7715552 0.19228457 0.13653462 0.004742473 -0.4616448
-0.012343009 0.6069418 -0.023867087 0.058612704 -1.268718 0.11175912 0.09710725 -0.09163457
-0.08477539 0.028527733 0.03962316 -0.51314443 -0.009695798 -0.044375975 0.32725444 -0.9171021
0.28325418 0.356888 0.11334744 -2.7321825 0.035673123 -1.338871 -0.043259755 0.38631037
0.35872436 0.22367057 -0.050512344 -2.0745647 0.033504292 -0.04981945 0.1512725 -0.09533916
-1.0466661 -0.52030754 -1.1285267 -0.0071353237 -0.20342281 -2.067935 -0.00749077 0.2010985
0.018752482 0.15984021 -0.06796697 0.5109462 -0.2854119 0.13591354 0.14970118 -1.0206531
0.1196536 0.019871391 -0.45936194 0.3123693 0.16309737 -0.009679239 0.2167053 -2.5395548
0.06270005 0.53363156 -1.6951761 0.07379786 -0.08562946 0.54967725 -1.344245 -0.32955173
-2.2852252 0.39638096 0.013503223 -0.45486146 -0.04164953 0.21724294 -0.26658672 -1.6917031
-1.8303387 -0.29814804 0.02725964 -0.07562383 -0.0004198469 -0.015543277 -0.31091943 -0.23084714
0.005966157 -0.7894253 -0.27696794 -1.2534025 -0.0008860559 0.045789078 -0.10864317 -0.7011717

fc3.bias f4 [24]
00000000: 87d2 873d 4a0e bbbe cdc5 b03e d2b7 c83e
00000010: c3f2 463e a970 92be 4474 df3e b3c6 ef3d
00000020: 1c39 fbbd 3199 aa3d 02fd 9abf 740b 7cbe
00000030: 93db 6cbe 46a0 a33e 1244 153e d0fc b6bc
00000040: 7c5a 14bd 432e bd3e 6dff cf3d 3cad 23be
00000050: f591 77be 3550 a73d 584e 263d 6cd5 46be
0.06631952 -0.3653434 0.3452591 0.39202744 0.19428544 -0.28601578 0.4364339 0.11707821
-0.12266752 0.0833 -1.2108462 -0.24613744 -0.23130636 0.31958216 0.14576748 -0.022337347
-0.036219105 0.36949357 0.101561405 -0.15984052 -0.24176772 0.08169595 0.04060206 -0.19417351
